Regression/save_models/F-final.ckpt (torch, 67327 bytes, 38 tensors)

_backbone.linear_layers.0.weight f4 [64, 3]
0	0x3eecf0d5	0.4627749
1	0xbdc6324f	-0.09677564
2	0xbf1521ef	-0.58254904
3	0xbf55b8f2	-0.8348533
4	0xbee87925	-0.45404926
5	0x3e4c12db	0.19929068
6	0x3fa4a54a	1.2862942
7	0x3fb679b1	1.4255887
8	0xbef46eab	-0.47740683
9	0x3f13a96a	0.5768038
10	0x3e0763a4	0.13221604
11	0xbe5b683a	-0.21426478
12	0xbe0ce53e	-0.13759324
13	0x3fbf2f80	1.4936371
14	0x3dc6a231	0.09698904
15	0x3f361a53	0.7113392
16	0x3f710a2b	0.9415614
17	0xbf6fafa0	-0.9362736
18	0x3f9b5b63	1.2137264
19	0x3f13e468	0.57770395
20	0xc00abd61	-2.1678088
21	0xbe3a6bfd	-0.18205257
22	0x3cabe577	0.02098344
23	0xbf13b665	-0.57700187
24	0xbe50777a	-0.20358077
25	0xbfd675bd	-1.6754681
26	0xbf6781c9	-0.9043241
27	0x3d1f2d75	0.03886171
28	0xbff2defd	-1.8974301
29	0x3e1e013a	0.15430155
30	0xbed62c89	-0.41830853
31	0xbf80ae2b	-1.0053152
32	0xbdb321a8	-0.08746654
33	0xbf93637f	-1.1514739
34	0xbee1ad33	-0.44077453
35	0x3f4298f3	0.7601463
36	0x3eb017f9	0.3439329
37	0xbedc44fd	-0.43021384
38	0x3ee6cc22	0.45077616
39	0x3f3fcffd	0.7492674
40	0xbf0bf701	-0.54673773
41	0xbea0104c	-0.31262434
42	0xbd68d378	-0.056842297
43	0xbfafa44f	-1.3722018
44	0x3e914e03	0.2837983
45	0x3ea038db	0.31293377
46	0xbe372a68	-0.1788727
47	0xbe7763a2	-0.241591
48	0xbe41baad	-0.18918867
49	0x3ed386b0	0.41313696
50	0x3f85d6e9	1.045621
51	0x3e90c77e	0.282772
52	0x3d614f4f	0.055007275
53	0xbf0804cd	-0.53132325
54	0xbef7aff4	-0.4837643
55	0x3f00a06b	0.5024478
56	0x3e46cfda	0.19415227
57	0x3f881e77	1.0634297
58	0x3cced39c	0.025247388
59	0xbe5d3bf3	-0.216049
60	0xbb169662	-0.0022977819
61	0x3fd8a443	1.6925129
62	0x3e7bdde0	0.24596357
63	0xbf39caaf	-0.72574896
64	0xbdd4d1a8	-0.10391551
65	0xbeb45c64	-0.35226738
66	0xbebe35a5	-0.37150303
67	0xbf222661	-0.6333981
68	0x3f0edbb6	0.55804
69	0x3e9b495d	0.3032941
70	0xbf45a300	-0.77201843
71	0xbdf0fec6	-0.11767344
72	0x3ddcbc14	0.107780606
73	0xbf833fe4	-1.0253873
74	0xbfbc9d54	-1.4735513
75	0x3f240703	0.640732
76	0xbeedd1d5	-0.46449152
77	0x3f130b72	0.5743934
78	0x3e65a292	0.22425297
79	0xbf5d39fc	-0.864166
80	0x3f022a8d	0.5084618
81	0x3ee41e26	0.4455425
82	0xbddc7551	-0.10764564
83	0xbdb1e984	-0.08687118
84	0x3f2657c8	0.64977694
85	0xbe9fbe76	-0.31199998
86	0xbe5b7212	-0.21430233
87	0x3f304d76	0.68868196
88	0xbeeb9a7d	-0.46016303
89	0x3e1493ca	0.14509502
90	0xbeac3fcc	-0.33642423
91	0xbf19653d	-0.599201
92	0x3d3e1053	0.046402287
93	0xbec21736	-0.37908334
94	0xbeb46c93	-0.35239086
95	0x3f89a562	1.0753596
96	0x3d8ae034	0.067810446
97	0xbfcd2a25	-1.6028486
98	0x3e0e6ae6	0.13907966
99	0xbdebea2e	-0.115192756
100	0x3f1228d6	0.5709356
101	0x3f64eeb7	0.8942675
102	0x3f3ba060	0.7329159
103	0x3edb1850	0.42791986
104	0xbf7b5ba1	-0.9818669
105	0x3e88758b	0.26652178
106	0x3e8263b9	0.25466707
107	0x3ec523bf	0.38503835
108	0xbc9a2533	-0.018816566
109	0xbc6c7b47	-0.0144336885
110	0x3da631c4	0.08114961
111	0xbd8dfe8e	-0.06933318
112	0xbf635bf1	-0.88812166
113	0x4021a405	2.525636
114	0xbee970e6	-0.45593947
115	0xbe535ed9	-0.2064165
116	0xbde2a178	-0.11065954
117	0x3f3f3506	0.7469028
118	0xbe8dd952	-0.27704865
119	0x3e8e4948	0.27790284
120	0xbf1cd19d	-0.61257344
121	0xbf0e3964	-0.5555632
122	0x3f71a2d6	0.9438909
123	0xbbf9caf7	-0.0076230722
124	0x400e1eb7	2.2206247
125	0x3ecdcea6	0.40196723
126	0x3dec1d5a	0.11529036
127	0x3fcd5541	1.6041642
128	0x3eb8ac04	0.36068738
129	0x3ecae99f	0.39631364
130	0xbf12e6ef	-0.57383627
131	0xbf84cc24	-1.0374799
132	0x3f0a44f8	0.5401149
133	0x3e70dc97	0.23521648
134	0x3f11a282	0.5688859
135	0xbedda294	-0.432881
136	0xbe5d0915	-0.21585496
137	0x3f6b16eb	0.91831845
138	0xbf7fc8ef	-0.99915975
139	0x3e3fc140	0.18726063
140	0xbfa3f594	-1.280932
141	0x3e694051	0.22778441
142	0xbfa95e9e	-1.3232
143	0xbea42aeb	-0.32063994
144	0x3ed029f1	0.40657
145	0xbf1a43d9	-0.6025978
146	0xbfc54826	-1.5412643
147	0x3f80677a	1.0031579
148	0x3f0656ec	0.5247638
149	0x3f505c4b	0.8139083
150	0x3f979aae	1.184408
151	0xbf6a6f54	-0.91576123
152	0xbf03cb00	-0.5148163
153	0xbea21577	-0.31657
154	0x3f48611b	0.7827317
155	0xbf8c21ae	-1.0947778
156	0x3ee4880a	0.4463504
157	0xbfad851c	-1.3556247
158	0x3eb1dd1d	0.3473901
159	0x3f2b7090	0.6696863
160	0x3f715a5a	0.9427849
161	0xbd273976	-0.040826283
162	0xbfde6c0b	-1.7376722
163	0xbe0024ab	-0.12513988
164	0xbfd17a48	-1.6365442
165	0xbe6aa52d	-0.22914572
166	0x3f212203	0.6294252
167	0xbf9a32f5	-1.2046801
168	0x3f08f51a	0.53498995
169	0xbf8c371b	-1.0954317
170	0xbdea30a0	-0.11435056
171	0x3de6475f	0.11244082
172	0xbfad5656	-1.3541973
173	0xbeb14605	-0.34623733
174	0x3f4ce6ce	0.8003968
175	0x3faf9dee	1.3720071
176	0x3f0d3849	0.5516401
177	0xbf5b1aa8	-0.8558755
178	0x3d0080ac	0.03137271
179	0x3e806aab	0.2508138
180	0xbebe7bba	-0.3720377
181	0x3f150cf7	0.5822291
182	0xbfea7d8f	-1.8319567
183	0x402dd0d2	2.7158704
184	0x3f10690d	0.56410295
185	0x3eed496d	0.46345082
186	0x3ef58715	0.47954622
187	0xbfdbe581	-1.7179414
188	0xbfa9501f	-1.3227576
189	0xbe2b7885	-0.16745193
190	0xbd94b26c	-0.07260594
191	0xbf2bcba2	-0.67107594

_backbone.linear_layers.0.bias f4 [64]
0	0x3ec35551	0.3815103
1	0x3ec1cef8	0.37853217
2	0xbe96b7d1	-0.29437116
3	0x3e02200d	0.12707539
4	0x3d6bafda	0.057540752
5	0xbedfd52e	-0.4371733
6	0xb96c5673	-0.00022538919
7	0xbee425d3	-0.44560108
8	0x3ed6b068	0.41931462
9	0xbeb85387	-0.36001226
10	0x3f000bfc	0.50018287
11	0xbe3d62f9	-0.18494786
12	0x3ea22934	0.3167206
13	0xbe3007d8	-0.17190492
14	0xbe1ecbaf	-0.15507387
15	0x3e33b0ce	0.17547914
16	0xbebbdc7e	-0.3669166
17	0x3e8e99b0	0.2785163
18	0xbdf0ee54	-0.117642075
19	0xbec1406c	-0.37744462
20	0xbf041fa5	-0.51610786
21	0x3ef796c1	0.48357204
22	0xbf19f532	-0.60139763
23	0x3ef61209	0.48060635
24	0xbeca28b1	-0.3948417
25	0xbf07d556	-0.530599
26	0xbeb8b8e4	-0.3607856
27	0x3e17197f	0.1475582
28	0x3e5e1ee9	0.21691479
29	0x3e0b4e21	0.13604023
30	0x3eeb2249	0.45924595
31	0x3d7d7dff	0.061887737
32	0x3eccc659	0.39995077
33	0x3b976670	0.004620366
34	0xbf098f71	-0.537345
35	0xbe797931	-0.24362637
36	0x3d79c07f	0.060974594
37	0x3e8af0fb	0.27136979
38	0xbe16793c	-0.14694685
39	0xbe6d0556	-0.23146567
40	0xbeaeafe9	-0.34118584
41	0x3ea1259b	0.31474003
42	0xbe3ec2c9	-0.18628992
43	0xbe0a6581	-0.13515283
44	0xbdc6929d	-0.09695933
45	0x3f02b11a	0.51051486
46	0x3e083cda	0.13304463
47	0xbdb0f667	-0.086407475
48	0xbed6229e	-0.41823286
49	0x3ee833db	0.45352063
50	0x3ef12b86	0.47103518
51	0xbebb5029	-0.36584595
52	0xbe53254d	-0.20619698
53	0x3e2553ff	0.16145323
54	0x3ee40dee	0.44541878
55	0x3f209f9d	0.6274355
56	0x3de8c459	0.11365575
57	0x3f067674	0.52524495
58	0x3e173518	0.14766347
59	0x3c7a3c88	0.015273221
60	0xbe90459e	-0.28178114
61	0x3dcb88c3	0.099381946
62	0xbe11c3bc	-0.14234823
63	0x3e423682	0.18966106

_backbone.linear_layers.3.weight f4 [32, 64]
0	0x3d8db530	0.069193244
1	0xbda8ea73	-0.08247843
2	0xbe7a1e3a	-0.24425593
3	0xbd76a7ea	-0.06021873
4	0x3e5a665f	0.21328114
5	0x3eb5e965	0.35529628
6	0xbea3df0e	-0.32006115
7	0x3e81f104	0.25379193
8	0x3e3fbf5c	0.18725342
9	0x3e0360f5	0.12829955
10	0xbd4176ab	-0.04723231
11	0x3e3e32a3	0.18574004
12	0x3d6d0146	0.057862543
13	0xbe0d3f0c	-0.13793582
14	0x3ddad016	0.106842205
15	0xbb399443	-0.002831713
16	0xbef99bbc	-0.48751628
17	0xbd2f3ec0	-0.042784452
18	0xbe7dfe5e	-0.24804065
19	0x3e5a2e4a	0.2130672
20	0x3e9d60fc	0.30738056
21	0xbb4400e5	-0.002990776
22	0x3db01893	0.08598437
23	0x3e018fb9	0.12652482
24	0xbca83a07	-0.020535482
25	0xbe15ad7d	-0.14616962
26	0xbe420bdc	-0.18949836
27	0xbe0d8e77	-0.13823877
28	0xbeae316b	-0.34022078
29	0x3dedb92e	0.11607586
30	0xbcb54ff6	-0.022132855
31	0xbd853f9c	-0.06506273
32	0x3e97945e	0.29605383
33	0xbd027647	-0.03185108
34	0x3dc30c62	0.09523846
35	0xbdf26a65	-0.118366994
36	0x3e088f19	0.13335837
37	0x3d61c47d	0.055119026
38	0xbe6bc0ac	-0.23022717
39	0xbe8a83b6	-0.27053612
40	0xbec79566	-0.3898117
41	0xbe299f02	-0.16564563
42	0x3e827522	0.2547999
43	0xbe3ca1e9	-0.18421139
44	0xbdf8716b	-0.12131008
45	0xbbb124a5	-0.0054059797
46	0x3e83b0fa	0.2572096
47	0x3ddc3844	0.10752919
48	0x3e806ebc	0.25084484
49	0xbbe49dee	-0.0069768345
50	0xbe5775d7	-0.21041046
51	0xbea43922	-0.3207484
52	0x3d007699	0.031363104
53	0x3e890436	0.26761025
54	0xbe20af3c	-0.15691847
55	0xbe6e091e	-0.23245665
56	0xbde2c5c7	-0.11072879
57	0xbdd3fc75	-0.10350887
58	0xbe3bb12d	-0.18329306
59	0xbd42856b	-0.04749052
60	0xbe157222	-0.1459432
61	0xbe33cd07	-0.1755868
62	0x3dcd940c	0.10038003
63	0xbed32b91	-0.41244176
64	0xbd8c5194	-0.06851497
65	0x3ac94ab6	0.0015357349
66	0x3eb21e64	0.3478881
67	0x3cd0b4a0	0.025476754
68	0x3e88e634	0.2673813
69	0xbe71f461	-0.2362838
70	0x3dfe9601	0.12430955
71	0xbe240d52	-0.16020706
72	0x3d02cd68	0.031934172
73	0xbd0e39d2	-0.03472311
74	0x3dbdeaf0	0.092733264
75	0x3ea8f2b3	0.32997665
76	0x3d8c96f0	0.068647265
77	0x3c860e21	0.016364159
78	0xbe9cee25	-0.3065044
79	0x3e100457	0.14064156
80	0x3d14d3a1	0.036334638
81	0xbe2b0c19	-0.16703834
82	0x3db91e8e	0.09039031
83	0x3d97ba9f	0.07408642
84	0x3d95212d	0.072817184
85	0xbe8e7db2	-0.27830273
86	0xbdb97c1d	-0.09056876
87	0xbd061ea6	-0.032744072
88	0x3dbe7e0f	0.093013875
89	0xbdbcaec3	-0.09213021
90	0x3dd53994	0.10411373
91	0x3e3fc7b0	0.18728518
92	0x3e09fc61	0.13475181
93	0x3e084beb	0.1331021
94	0x3ea1217c	0.3147086
95	0x3ccf8c93	0.025335586
96	0xbe534a8f	-0.2063391
97	0x3d267e7a	0.04064796
98	0x3dd69a3b	0.10478636
99	0xbe2eca57	-0.17069374
100	0x3dc58616	0.096447155
101	0x3e3b4296	0.1828712
102	0x3e265346	0.16242704
103	0x3eb57eff	0.35448453
104	0xbe71ddc2	-0.2361975
105	0xbd103adc	-0.035212383
106	0x3d81072d	0.06300197
107	0xba6bffb3	-0.0009002641
108	0xbc66a1e6	-0.0140766855
109	0x3ea1a5ba	0.31571752
110	0x3ca241d2	0.019806776
111	0x3d3ab25e	0.04558026
112	0xbe6219a1	-0.22080089
113	0x3ca4302b	0.0200425
114	0x3ed2c54f	0.4116616
115	0xbdd13dce	-0.102168664
116	0xbe404862	-0.18777612
117	0x3df475a2	0.11936499
118	0xbd9c376d	-0.07627759
119	0xbdc69c33	-0.096977614
120	0x3cc6cfc3	0.02426899
121	0xbd5e2aed	-0.054240156
122	0xbea0af92	-0.3138395
123	0xbe6169bd	-0.22012992
124	0xbe6dec99	-0.23234786
125	0x3dbc24b6	0.091866896
126	0x3b371403	0.0027935512
127	0xbd8ddd84	-0.069270164
128	0xbe2d6868	-0.16934359
129	0x3dd9b7e6	0.10630779
130	0x3e11c153	0.14233904
131	0xbded1567	-0.11576348
132	0xbdbfb219	-0.09360141
133	0xbe4288e0	-0.18997526
134	0xbe196668	-0.14980471
135	0xbe7572fe	-0.23969647
136	0x3e54735c	0.20747131
137	0xbe8d9155	-0.27649942
138	0xbe57be31	-0.21068646
139	0xbd4b26d2	-0.04959757
140	0x3e322dd9	0.17400302
141	0xbded7006	-0.115936324
142	0x3e0729de	0.13199565
143	0xbe6c3a5c	-0.23069137
144	0x3dac3f88	0.08410555
145	0xbe1efa7d	-0.15525241
146	0x3df0a2c4	0.11749795
147	0xbe01b7cc	-0.12667769
148	0xbe839301	-0.25698093
149	0xbd2c9388	-0.042132884
150	0xbd3f595e	-0.046716087
151	0xbe6c724f	-0.2309048
152	0x3ed2bf3f	0.41161534
153	0x3d493379	0.049121354
154	0xbcc6e2ac	-0.024278007
155	0xbe2d1600	-0.16902924
156	0xbeecbfe2	-0.46240145
157	0xbd0110ff	-0.03151035
158	0x3d60b2e6	0.05485811
159	0x3d2566ef	0.04038137
160	0xbe63e39a	-0.22254792
161	0x3e570692	0.209986
162	0xbdbc8635	-0.092052855
163	0x3dc20e64	0.09475401
164	0xbe558a6f	-0.2085359
165	0xbe49ee5e	-0.19719836
166	0xbefe498d	-0.4966549
167	0xbe4a3e87	-0.19750415
168	0xbd6997f4	-0.05702968
169	0xbd64ee65	-0.055891413
170	0xbde2eb9e	-0.11080097
171	0x3cc5c859	0.024143385
172	0x3e36a92e	0.17837974
173	0x3d79ed66	0.061017416
174	0x3e509487	0.20369159
175	0xbd2a4b9e	-0.04157602
176	0xbe9ec934	-0.3101288
177	0x3e6f46da	0.23366871
178	0x3dc9b7fc	0.09849545
179	0x3d0caffb	0.034347516
180	0x3d815dc5	0.06316713
181	0x3e5133a2	0.20429853
182	0xbe2d219a	-0.16907349
183	0xbe7f43df	-0.24928235
184	0x3e627901	0.22116472
185	0xbe9d2598	-0.30692744
186	0xbd8427da	-0.064529136
187	0x3ea8cd22	0.32969004
188	0xbdf155c4	-0.117839366
189	0x3e6db1ab	0.23212306
190	0x3e227280	0.15863991
191	0x3e154323	0.14576392
192	0xbe082a95	-0.13297494
193	0xbcfe1298	-0.031014726
194	0xbe4a06f9	-0.19729222
195	0xbca23134	-0.019798853
196	0x3e1b265a	0.15151349
197	0x3ef6822d	0.4814619
198	0xbe2c8445	-0.16847332
199	0xbe884b6c	-0.26620042
200	0x3d0ba275	0.034090478
201	0xbe8bcad0	-0.2730317
202	0xbe557d92	-0.20848683
203	0x3e0d9b9c	0.13828892
204	0xbc803096	-0.015648168
205	0xbe755dfa	-0.2396163
206	0x3da3738a	0.07981022
207	0xbcfce840	-0.030872464
208	0x3e19c38a	0.15015998
209	0xbdab71d8	-0.08371323
210	0x3d5b28bd	0.053505648
211	0xbe7cc7f2	-0.24685648
212	0xbd1c4a71	-0.03815693
213	0x3d65a95e	0.056069724
214	0x3e5ad5a2	0.21370557
215	0x3d63adb3	0.055585574
216	0x3dd7cb00	0.10536766
217	0x3b4d1ab4	0.0031296434
218	0x3a9e0a1a	0.0012057454
219	0xbe901de7	-0.28147814
220	0x3dc5ea56	0.09663837
221	0x3d1f39b4	0.03887339
222	0x3def29fd	0.116779305
223	0xbc90d7a8	-0.017680958
224	0x3e1975da	0.14986363
225	0x3cc66292	0.024216924
226	0x3b9d65c2	0.0048033902
227	0x3dc68e61	0.09695125
228	0x3a31d9a0	0.0006784443
229	0xbd6d809a	-0.057983972
230	0x3e717682	0.23580363
231	0x3e25ec4d	0.16203423
232	0xbdc9b525	-0.09849004
233	0x3cbf81fe	0.023377415
234	0x3d043001	0.032272343
235	0x3c9fe08f	0.019516258
236	0x3eca87db	0.39556774
237	0x3e1158a7	0.14193974
238	0x3d143961	0.036187533
239	0x3e3f83c6	0.18702611
240	0x3e966d4d	0.29380265
241	0x3d660bb4	0.056163505
242	0xbe08df5f	-0.1336646
243	0x3cdeb53a	0.027186025
244	0xbc88353b	-0.016626945
245	0x3d927141	0.07150508
246	0xbde0f8c8	-0.10984951
247	0x3d8388bc	0.064225644
248	0x3d090812	0.033454962
249	0xbd9e8fae	-0.077422485
250	0x3dd993b6	0.10623877
251	0x3e1f4d1b	0.15556757
252	0x3d6bb183	0.057542335
253	0x3dc726fb	0.09724232
254	0x3dca8105	0.0988789
255	0xbe4e53f1	-0.20149209

_backbone.linear_layers.3.bias f4 [32]
0	0xbdb6a90c	-0.08918962
1	0x3e0917b4	0.13387948
2	0xbd98774b	-0.07444628
3	0x3c9be730	0.019031137
4	0xbda4bc67	-0.080437474
5	0xbd177072	-0.03697247
6	0xbccfa96d	-0.025349343
7	0x3dc7fba2	0.09764792
8	0x3d9d4d03	0.076807044
9	0xbe3f346d	-0.18672343
10	0x3e1c7b2a	0.15281358
11	0xbd83a503	-0.06427958
12	0x3d4a3b7c	0.049373135
13	0xbd44debb	-0.048063975
14	0x3da8bfdf	0.082397215
15	0xbd7d3cb1	-0.061825458
16	0xbc1c3fc9	-0.009536692
17	0xbcf00d9a	-0.02930336
18	0x3ac3e73d	0.0014946234
19	0xbd40e36d	-0.04709189
20	0x3d283720	0.041068196
21	0xbd1ce56d	-0.038304735
22	0x3cb3d2dd	0.021951133
23	0x3a20e38c	0.0006137423
24	0xbe0c22b0	-0.13685107
25	0xbd063613	-0.032766413
26	0x3d6e2b42	0.058146723
27	0x3d8a0472	0.06739129
28	0xbddc44fe	-0.10755347
29	0xbdbefc2f	-0.09325444
30	0xbc970798	-0.018436238
31	0x3c99f2da	0.018792558

_backbone.linear_layers.6.weight f4 [16, 32]
0	0x3e1ef6f8	0.15523899
1	0xbe4203d4	-0.18946773
2	0xbdaca004	-0.08428958
3	0xbec645af	-0.3872504
4	0x3ebe41d1	0.3715959
5	0x3edc0083	0.4296914
6	0xbe09ddad	-0.13463469
7	0x3d696c46	0.056988023
8	0x3ea3993e	0.31952852
9	0x3e128b09	0.1431085
10	0xbecb58c5	-0.39716163
11	0x3d59bc90	0.053158343
12	0x3e8fe515	0.28104463
13	0xbddc77ed	-0.107650615
14	0xbecf4381	-0.4048119
15	0x3f097094	0.53687406
16	0xbe264155	-0.1623586
17	0x3d11fac7	0.03563955
18	0xbe0f3000	-0.13983154
19	0x3e1ea1b5	0.15491374
20	0xbe3d30cf	-0.1847565
21	0x3d8a29e6	0.06746273
22	0x3ee82fb3	0.45348892
23	0xbe8cc7a5	-0.27496067
24	0x3ebbe01c	0.3669442
25	0xbf087e4d	-0.5331772
26	0xbd6cdaa4	-0.0578257
27	0xbe42a26b	-0.1900727
28	0x3e6f139d	0.23347326
29	0xbdadb3b1	-0.08481539
30	0x3e5ec30d	0.21754093
31	0x3e81f0d1	0.2537904
32	0x3d911999	0.070849605
33	0x3e31d227	0.17365323
34	0xbdf3f505	-0.11911968
35	0xbe0d4783	-0.13796811
36	0xbed7de62	-0.42161852
37	0xbec76918	-0.38947368
38	0x3d08a1f4	0.033357576
39	0x3cf83778	0.030299887
40	0x3d7c06e2	0.06153
41	0x3f29f2d9	0.6638618
42	0xbf215336	-0.63017595
43	0xbe641a3d	-0.22275634
44	0xbd93c482	-0.07215215
45	0x3e1cb06b	0.15301673
46	0xbd79c911	-0.060982767
47	0x3e7204e6	0.23634681
48	0xbe9b7cca	-0.30368644
49	0xbe4f8e37	-0.20269094
50	0x3e696ff1	0.22796609
51	0xbe33acc4	-0.17546374
52	0xbe3d94ee	-0.18513843
53	0xbef6d44e	-0.4820885
54	0x3cf21824	0.029552527
55	0x3d40afdd	0.047042716
56	0x3dddbc54	0.10826936
57	0xbe30e344	-0.17274195
58	0xbdf7c23f	-0.120975964
59	0xbd5499c7	-0.051904466
60	0x3df82807	0.121170096
61	0x3e8aae2c	0.27086008
62	0xbd5d4d54	-0.054028824
63	0x3e71e34f	0.23621868
64	0x3e6841bf	0.2268133
65	0x3d018055	0.031616528
66	0xbe7bf3d4	-0.24604732
67	0x3c8dbefb	0.01730298
68	0x3e7d60bf	0.24743937
69	0x3cc0ab0d	0.023519063
70	0xbe09e7de	-0.13467357
71	0x3db310d7	0.08743446
72	0xbdd99f2c	-0.10626063
73	0x3ea76a36	0.3269822
74	0xbe5ac756	-0.21365103
75	0xbc94d585	-0.01816822
76	0xbc1bbb21	-0.009505064
77	0xbd796327	-0.060885575
78	0xbbdfb859	-0.006827396
79	0xbda899fc	-0.08232495
80	0x3e7d3ae8	0.24729502
81	0xbefdd3d0	-0.49575663
82	0x3d8629f2	0.06550969
83	0xbd8bfed0	-0.06835711
84	0x3e227565	0.15865095
85	0xbc9e6ec5	-0.019339928
86	0x3d6b739b	0.057483297
87	0xbddf4f83	-0.109038375
88	0x3e8005b4	0.2500435
89	0x3d4802ba	0.048830725
90	0xbe27ed66	-0.16399154
91	0x3e302ae8	0.17203867
92	0xbda5fa69	-0.081044026
93	0x3d219887	0.039452102
94	0xbdead1de	-0.1146581
95	0x3ea49afb	0.3214949
96	0xbe1de2d0	-0.15418553
97	0x3dce4779	0.10072226
98	0x3e36c893	0.1784995
99	0x3e1b044b	0.15138356
100	0xbdf05544	-0.11735013
101	0x3ea0cfe6	0.31408614
102	0x3c266efb	0.010158296
103	0x3f101bae	0.56292236
104	0xbe8331bd	-0.25623885
105	0x3ce3788f	0.027767448
106	0x3e3f1a14	0.18662292
107	0xbce32ddd	-0.02773183
108	0x3cfbed01	0.03075266
109	0xbb9e8d7e	-0.0048386445
110	0x3e6d0b2a	0.2314879
111	0xbe03f706	-0.128872
112	0xbe8766b4	-0.26445544
113	0x3ea204f2	0.31644398
114	0xbeb682c4	-0.3564664
115	0xbe11b9ad	-0.14230986
116	0xbe22008c	-0.15820521
117	0x3dbb0607	0.09132009
118	0x3e942044	0.28930867
119	0x3ebbbd1f	0.36667725
120	0xbde066f1	-0.109571345
121	0x3dd308bf	0.103044026
122	0x3e0e0653	0.138696
123	0x3eb13d94	0.34617293
124	0xbd79f18b	-0.06102137
125	0xbe462ff6	-0.19354233
126	0x3ca7d12f	0.020485489
127	0xbd396a59	-0.045267437
128	0x3dc2d179	0.0951261
129	0xbe95bb94	-0.29244673
130	0xbd897077	-0.06710904
131	0xbe3dcda1	-0.18535472
132	0xbce56750	-0.028003365
133	0xbe194fff	-0.14971922
134	0xbe2e93aa	-0.17048517
135	0xbe0149ba	-0.1262578
136	0xbd984f70	-0.074370265
137	0xbd1007bb	-0.035163622
138	0xbedf4167	-0.43604586
139	0xbe475806	-0.19467172
140	0x3dfb8159	0.122805305
141	0x3e9dffd1	0.30859235
142	0x3cf88478	0.030336604
143	0x3e3722ea	0.17884412
144	0xbe3a0b17	-0.18168293
145	0xbe272399	-0.16322173
146	0xbecd337c	-0.40078342
147	0x3e60a562	0.21938089
148	0xbf1afce9	-0.6054216
149	0x3e11ea64	0.14249569
150	0xbe2b6d43	-0.16740899
151	0x3de43a9c	0.11143991
152	0x3c8b66ba	0.017016757
153	0x3e742e82	0.23845866
154	0x3dc84693	0.09779086
155	0xbe3c332e	-0.18378899
156	0x3e103077	0.14080988
157	0x3e39c4db	0.181415
158	0xbe1027ce	-0.14077684
159	0xbe866f8a	-0.26256973
160	0xbea7dd9d	-0.32786265
161	0x3d212795	0.03934439
162	0xbf238b58	-0.63884497
163	0x3e53bca8	0.20677435
164	0x3e58f2d7	0.21186386
165	0x3d2426ee	0.04007619
166	0xbe210931	-0.15726162
167	0xbee364e5	-0.44412914
168	0xbc182c38	-0.009287886
169	0xbe01a7b4	-0.1266163
170	0x3e4f4ab0	0.20243335
171	0x3eb88f6f	0.3604693
172	0xbe504265	-0.20337828
173	0xbe84c47b	-0.25931153
174	0xbd82e6c1	-0.06391669
175	0x3e2dcb58	0.169721
176	0xbe0e7e1c	-0.13915294
177	0x3dcddcb0	0.100518584
178	0x3e162dc9	0.14665903
179	0xbe51fbe9	-0.20506252
180	0x3f044ac6	0.51676595
181	0xbeb7d0d7	-0.3590152
182	0xbe81ebe7	-0.25375292
183	0xbc5229b1	-0.012827323
184	0xbd00324d	-0.03129797
185	0xbe1cebfc	-0.15324396
186	0xbe70f7c5	-0.23532017
187	0xbed1fef2	-0.4101482
188	0xb9e7520c	-0.00044120883
189	0x3e4e932e	0.20173332
190	0xbe624fed	-0.22100802
191	0x3e87451e	0.2641992
192	0x3dcf1a1b	0.10112401
193	0x3d9b6412	0.07587446
194	0x3e40b440	0.1881876
195	0xbe90c901	-0.28278354
196	0x3db7eee1	0.089811094
197	0x3d5bf99f	0.053704854
198	0x3e95c588	0.29252267
199	0xbeb5c89c	-0.35504615
200	0x3e8d6387	0.27614996
201	0xbe881769	-0.2658036
202	0xbc803044	-0.015648015
203	0xbef5dfb2	-0.48022228
204	0xbe975351	-0.29555753
205	0x3e35d2ed	0.17756243
206	0xbe390e27	-0.18071805
207	0x3dec6c7e	0.11544131
208	0x3e83e0a1	0.25757316
209	0xbe809702	-0.2511521
210	0x3d72a5b5	0.05924006
211	0xbe59ae78	-0.21257961
212	0xbe12a797	-0.14321743
213	0xbd13e3ff	-0.036106106
214	0x3e873621	0.26408485
215	0xbf0561a6	-0.52102125
216	0xbe286e9a	-0.16448441
217	0xbe9f44fc	-0.31107318
218	0xbe054a76	-0.13016686
219	0xbe67210e	-0.22571203
220	0xbcb577dc	-0.02215188
221	0x3bca6679	0.0061767665
222	0x3eaeaf3c	0.34118068
223	0x3cfe66bc	0.031054847
224	0xbe200bb0	-0.15629458
225	0xbde0c0f7	-0.10974305
226	0x3f084a27	0.5323815
227	0x3dd67104	0.10470775
228	0x3d38a169	0.045075808
229	0x3eb65808	0.35614038
230	0xbe8698fa	-0.26288587
231	0xbcc4057c	-0.023928396
232	0x3dfa91c7	0.12234836
233	0x3e5064e4	0.20350987
234	0xbe09f5b7	-0.13472639
235	0xbda601b0	-0.081057906
236	0x3e96dc4a	0.29464942
237	0x3e6d7c97	0.23192059
238	0xbf169d99	-0.58834225
239	0x3ea01686	0.31267184
240	0x3e2b3d1e	0.16722533
241	0x3e022600	0.12709808
242	0x3d95a07a	0.07305999
243	0xbcf5ba9e	-0.029996213
244	0xbcb06412	-0.021532092
245	0xbd68273a	-0.056678034
246	0x3e062962	0.13101724
247	0x3da85cdf	0.08220839
248	0xbe845c95	-0.25851884
249	0xbec9d112	-0.3941732
250	0xbe426f76	-0.18987831
251	0xbe46ffd4	-0.19433528
252	0x3e9952b0	0.29945898
253	0xbee0df16	-0.439202
254	0x3e22af1b	0.1588711
255	0xbd897bb2	-0.06713046

_backbone.linear_layers.6.bias f4 [16]
0	0x3d4a9a2c	0.049463436
1	0xbd91e1c9	-0.07123143
2	0xbe18cdc3	-0.14922242
3	0x3d846969	0.06465418
4	0x3d0d51f3	0.03450198
5	0xbe3610f6	-0.17779908
6	0xbdc5a062	-0.09649731
7	0xbd668a7d	-0.056284416
8	0x3d938cfa	0.072046235
9	0x3dfa152b	0.12211069
10	0x3e135a69	0.14389957
11	0xbcb90e13	-0.022589719
12	0xbdeb1167	-0.114779286
13	0xbe182c11	-0.1486056
14	0x3c00aeff	0.007854222
15	0xbe1da4dc	-0.1539492

_embedding_layer.normalizing_batch_norm.weight f4 [3]
0	0x3f71b47b	0.94416016
1	0x3f59dd4f	0.85103315
2	0x3f7d4419	0.98932034

_embedding_layer.normalizing_batch_norm.bias f4 [3]
0	0x3c510ab7	0.012758902
1	0x3d6edda7	0.058316853
2	0x3d823199	0.06357116

_embedding_layer.normalizing_batch_norm.running_mean f4 [3]
0	0xbc7f8873	-0.015596497
1	0x3c80dceb	0.015730342
2	0x3bb041d1	0.0053789397

_embedding_layer.normalizing_batch_norm.running_var f4 [3]
0	0x3f804b77	1.002303
1	0x3f81e6f5	1.0148607
2	0x3f840ce5	1.0316435

head.layers.0.weight f4 [1, 16]
0	0x3c8ddd3e	0.01731741
1	0xbc8975a0	-0.01677972
2	0xbe26bbec	-0.16282624
3	0x3ea84d62	0.32871538
4	0xbee6a012	-0.45044
5	0x3e915105	0.28382125
6	0xbec8fbcb	-0.39254603
7	0x3e6c4b3a	0.23075572
8	0xbd81121b	-0.063022815
9	0x3dd1546a	0.10221179
10	0x3e98fa71	0.29878572
11	0xbd812897	-0.0630657
12	0xbea2a79b	-0.31768498
13	0xbeb9923f	-0.3624439
14	0x3cb1a11a	0.021683265
15	0xbf125951	-0.57167536

exp_avg f4 [64, 3]
0	0x3fdc4f06	1.7211616
1	0xc03f07dd	-2.984855
2	0xbe2f737e	-0.171339
3	0xbf0b54b6	-0.54426134
4	0xc042b810	-3.0424843
5	0xbfed11d6	-1.8521068
6	0x3f386755	0.7203267
7	0x4093387a	4.600644
8	0x3fc2f2ac	1.5230308
9	0x3fdfdccd	1.7489258
10	0x402fa0ed	2.7441971
11	0x40b361f2	5.605706
12	0xc0571745	-3.3607953
13	0xc0870773	-4.2196593
14	0xc0229bd6	-2.5407615
15	0xc0c462f9	-6.1370816
16	0x4039d485	2.9035962
17	0x402836bd	2.628341
18	0xc0879055	-4.2363687
19	0x401ef3f3	2.4836395
20	0x3fc97a98	1.5740538
21	0xc06320b1	-3.5488703
22	0xbf1b88a5	-0.6075538
23	0xbf54fa1c	-0.83194137
24	0x3efe31d7	0.496474
25	0xc01b0e3e	-2.4227443
26	0x3ed66213	0.418717
27	0x3e4c6ad7	0.19962631
28	0x3f5e9c38	0.8695712
29	0x3fd1dfda	1.6396439
30	0x3fefbaf0	1.8728924
31	0x3daaf5c2	0.08347656
32	0x3f8e3b49	1.1111842
33	0x3f160af1	0.58610445
34	0x4042b036	3.042005
35	0x3fbbe959	1.4680587
36	0x4021ab6e	2.5260882
37	0xbf490f69	-0.7853914
38	0x3e362122	0.17786077
39	0x4003a61b	2.0570133
40	0xc10ef177	-8.933951
41	0xc0f45d25	-7.63637
42	0xc05a2158	-3.4082851
43	0xbf836f8f	-1.026842
44	0xbf8292ad	-1.0201012
45	0x3f04b394	0.51836514
46	0x40c68686	6.2039213
47	0x4164cc85	14.299932
48	0x3f2f453f	0.68465036
49	0x3e0eed41	0.13957693
50	0x3f9e2629	1.2355396
51	0xc00154df	-2.0208051
52	0x404a86fb	3.1644886
53	0x407c4019	3.9414122
54	0x40c47620	6.1394196
55	0x40c28bc5	6.0795617
56	0x40bac40c	5.8364315
57	0xc05a19be	-3.4078212
58	0xbf84e70a	-1.0383008
59	0xc0686a47	-3.6314867
60	0xc01c355e	-2.4407573
61	0xc016700e	-2.3505893
62	0xc08251b8	-4.0724754
63	0x3fe4ca22	1.7874186
64	0x4101f216	8.121603
65	0x40a14fdd	5.040999
66	0xbf3897b5	-0.72106487
67	0x3fb854f2	1.4400923
68	0x3fe99736	1.8249271
69	0x404b5a70	3.1773949
70	0x3ec3580c	0.38153112
71	0x3fbeceb1	1.4906827
72	0xbfb28c93	-1.394915
73	0xc0d14163	-6.539232
74	0xc071641e	-3.7717357
75	0xbf40a829	-0.7525659
76	0xc0456d42	-3.0847936
77	0xc08b0aea	-4.3450823
78	0xbfb44496	-1.4083431
79	0x40d77fbb	6.734342
80	0x405e8697	3.4769647
81	0xbe0e2da5	-0.138846
82	0xc0d2c279	-6.5862393
83	0xc0cfee66	-6.4978514
84	0x3cc464cb	0.023973843
85	0xc0d60b8b	-6.688909
86	0xc08be6e3	-4.3719344
87	0x4031a57d	2.7757256
88	0xbfe5973a	-1.7936776
89	0xbf244ec4	-0.64182687
90	0x3eeed140	0.4664402
91	0xc16007a5	-14.001866
92	0xc14724f2	-12.44652
93	0xc02c7dd3	-2.6951797
94	0xbfb22137	-1.3916386
95	0xc0174050	-2.3633003
96	0xbfdc3982	-1.720505
97	0xc065a073	-3.587918
98	0xbfc709e8	-1.5549898
99	0xbf794b7b	-0.973808
100	0xbefa4ea6	-0.4888813
101	0xbfdd5904	-1.729279
102	0xbfc8dc62	-1.5692255
103	0x3f450426	0.76959455
104	0x3fd07f88	1.628892
105	0xbef82d5e	-0.48472112
106	0x3e22b093	0.1588767
107	0x3e616a22	0.22013143
108	0x3fad04ea	1.3517125
109	0x40246479	2.5686324
110	0x3ec5861c	0.3857888
111	0x3ff10a58	1.8831282
112	0x40c1352d	6.037741
113	0x4085ce2b	4.181417
114	0x3ee61c78	0.44943595
115	0x40b5d73c	5.6825237
116	0x40728f2e	3.789989
117	0xbe992b30	-0.29915762
118	0x40448151	3.0703928
119	0x3ffb6d3f	1.9642714
120	0xbf6a53f0	-0.9153433
121	0xbf87b695	-1.0602595
122	0xbf8fb6c8	-1.1227655
123	0xbf5e1f2b	-0.8676631
124	0x3f7b374e	0.98131263
125	0xbfb5bd71	-1.4198438
126	0x3ebff8c4	0.3749448
127	0x40ad340b	5.412603
128	0x409f4477	4.9771075
129	0xbf300d86	-0.68770635
130	0xc0020cbe	-2.0320277
131	0xc09971c3	-4.795137
132	0xbf173e03	-0.59079
133	0x3ea98fb6	0.33117455
134	0xbff0c967	-1.8811463
135	0x3d7129d9	0.0588778
136	0x4082be73	4.085748
137	0x3f3065d6	0.6890539
138	0xbffd131a	-1.9771454
139	0x40a17336	5.045314
140	0x403cf518	2.9524593
141	0xbfc35970	-1.5261669
142	0xbf1c6afe	-0.6110076
143	0xbf407ce1	-0.7519055
144	0x3f9d0528	1.2267199
145	0x3ff54604	1.9161992
146	0x40941a1c	4.628187
147	0xbf42166b	-0.7581546
148	0x3ff942d6	1.9473522
149	0xbf067b85	-0.52532226
150	0x40643d38	3.5662365
151	0xc0810978	-4.032406
152	0xc0843e95	-4.1326394
153	0xbf8e567e	-1.1120145
154	0xbda224fe	-0.07917212
155	0xbe4569e9	-0.19278683
156	0xc0140c97	-2.3132684
157	0x40e48154	7.140787
158	0x402170eb	2.522517
159	0x4067bd40	3.620926
160	0x400df0f1	2.217831
161	0x405d78ea	3.460505
162	0xc0c16c7f	-6.044494
163	0x41172d51	9.448564
164	0x40a18529	5.047505
165	0xc1607b62	-14.030123
166	0x40f8bace	7.7728033
167	0x40bbff49	5.8749127
168	0x3fc235d0	1.5172672
169	0x406a2ed3	3.659108
170	0xbf5e5d21	-0.86860853
171	0x4050b44b	3.2610042
172	0xc0def07e	-6.966857
173	0xc09b951d	-4.8619523
174	0x405decc7	3.4675767
175	0x402b30ae	2.6748462
176	0x4045b905	3.0894177
177	0x3fb4c74c	1.412332
178	0x408e236c	4.441824
179	0x3f73fd3a	0.9530827
180	0xc0cef03d	-6.466826
181	0x41898e04	17.194344
182	0x41394328	11.578896
183	0x3fbc6f37	1.472144
184	0x3f8897a4	1.0671277
185	0xbe5b0817	-0.21389805
186	0x400faf1a	2.2450624
187	0xc097963a	-4.737088
188	0xbfba368d	-1.4547898
189	0xc000b34f	-2.0109441
190	0x405f5ebf	3.4901578
191	0x4021aad8	2.5260525

exp_avg_sq f4 [64, 3]
0	0x43a58283	331.01962
1	0x44277195	669.7747
2	0x43ac00b2	344.00543
3	0x4307a4ec	135.64423
4	0x43e40b64	456.089
5	0x43710cbb	241.04973
6	0x448065fa	1027.1868
7	0x439935a5	306.4191
8	0x4487b978	1085.7959
9	0x4413174c	588.364
10	0x43ef25aa	478.29425
11	0x442cb6c1	690.8555
12	0x43d177a0	418.93457
13	0x42fe1805	127.04691
14	0x437d728a	253.44742
15	0x43f37e6a	486.9876
16	0x43561c7f	214.11131
17	0x43854ecf	266.6157
18	0x43183f92	152.24832
19	0x43bef1d9	381.88943
20	0x431f43d4	159.26495
21	0x430743b1	135.26442
22	0x44441949	784.3951
23	0x439d380a	314.4378
24	0x43cd5716	410.68036
25	0x44a05b91	1282.8615
26	0x43f17be2	482.96783
27	0x4422ce8d	651.22736
28	0x452373c7	2615.236
29	0x444973e0	805.81055
30	0x439f04d1	318.03763
31	0x441d8432	630.06555
32	0x439aefe1	309.87405
33	0x431298b2	146.59647
34	0x4414d8d4	595.38794
35	0x434c71fe	204.44528
36	0x4409dd3c	551.4568
37	0x44c62198	1585.0498
38	0x443d93f2	758.31165
39	0x43e251a4	452.63782
40	0x44bcecf6	1511.405
41	0x44156485	597.5706
42	0x43b70663	366.0499
43	0x443d3485	756.8206
44	0x438e89b4	285.0758
45	0x452b671a	2742.4438
46	0x44c805f5	1600.1862
47	0x45541375	3393.216
48	0x43961e5a	300.23712
49	0x434fd5f0	207.8357
50	0x43e008f5	448.06998
51	0x44ada647	1389.1962
52	0x44f18fad	1932.4899
53	0x44a1b82d	1293.7555
54	0x43571659	215.0873
55	0x431001f5	144.00764
56	0x438b5a2b	278.70444
57	0x442139f3	644.90546
58	0x43ca2925	404.32144
59	0x44065c42	537.4415
60	0x4410e118	579.5171
61	0x43c4fe59	393.9871
62	0x4446b0f3	794.76483
63	0x43a1fc9d	323.97354
64	0x4458daf7	867.4213
65	0x43bcd2af	377.64597
66	0x4263a90c	56.915085
67	0x432dd468	173.82971
68	0x42a4b53a	82.35396
69	0x4439c952	743.1456
70	0x442f08eb	700.13934
71	0x43a24912	324.57086
72	0x438ea29f	285.27048
73	0x444d04ba	820.07385
74	0x43dbca44	439.5802
75	0x43891428	274.15747
76	0x438b0099	278.00467
77	0x43647b77	228.48228
78	0x43241c46	164.11044
79	0x43ec5763	472.6827
80	0x4370148d	240.08028
81	0x43a3e188	327.76196
82	0x443dff43	759.98846
83	0x43fba5ee	503.29633
84	0x441c7418	625.81396
85	0x44871f3d	1080.9762
86	0x444eb393	826.80585
87	0x440d6343	565.55096
88	0x43efabd5	479.34244
89	0x4407ab0e	542.6727
90	0x44077274	541.7883
91	0x44a48088	1316.0166
92	0x44247ec6	657.98083
93	0x439b9477	311.15988
94	0x43643d2d	228.23897
95	0x43b2df07	357.7424
96	0x440ee21d	571.533
97	0x44c18a71	1548.3263
98	0x441aecd8	619.7007
99	0x44673659	924.8492
100	0x43ae688a	348.8167
101	0x44713f1c	964.9861
102	0x4344d4a7	196.83067
103	0x439f9633	319.17343
104	0x42f6eeb3	123.46621
105	0x43d800d3	432.00644
106	0x4303e640	131.89941
107	0x44016ef0	517.7334
108	0x444ea0bf	826.51166
109	0x43bfd6c7	383.67795
110	0x441d06bd	628.1053
111	0x44765d83	985.4611
112	0x43b7d729	367.68094
113	0x4425c827	663.1274
114	0x4438a414	738.5637
115	0x4480e8b7	1031.2723
116	0x4400d8ec	515.3894
117	0x43cff18d	415.88712
118	0x43d2bf17	421.4929
119	0x43c7990b	399.19565
120	0x43a4bdfc	329.48425
121	0x44420cc3	776.1994
122	0x43db19f9	438.2029
123	0x435f5bdc	223.35883
124	0x43405fc1	192.37404
125	0x441d05d6	628.0912
126	0x443158b1	709.3858
127	0x43ffccba	511.59943
128	0x4467bf4f	926.9892
129	0x440b52f5	557.2962
130	0x45139b4f	2361.7068
131	0x446dde02	951.4689
132	0x43fd958b	507.1683
133	0x43569180	214.56836
134	0x43c0e316	385.7741
135	0x4467cae9	927.1705
136	0x43d39521	423.16507
137	0x44249992	658.39954
138	0x42df0b48	111.52203
139	0x4381e0f5	259.75748
140	0x42e5b69d	114.85667
141	0x43115847	145.34483
142	0x4382e698	261.8015
143	0x42da570a	109.17
144	0x43cb3178	406.38647
145	0x44b3c1e3	1438.059
146	0x4409a004	550.50024
147	0x439d5080	314.6289
148	0x43195786	153.34189
149	0x43721a44	242.1026
150	0x44122882	584.63293
151	0x4484154a	1056.6653
152	0x4426084b	664.1296
153	0x42d68db0	107.27673
154	0x42750dc2	61.263435
155	0x42e09cc4	112.30618
156	0x438846b3	272.55234
157	0x4416523c	601.2849
158	0x43ac65ae	344.79437
159	0x443c107f	752.25775
160	0x43b523d5	362.27994
161	0x445b4852	877.13
162	0x44800ca1	1024.3947
163	0x44acf000	1383.5
164	0x441d24c0	628.5742
165	0x441089c4	578.1526
166	0x44cfb6eb	1661.7162
167	0x4409f215	551.78253
168	0x43f6e24a	493.76788
169	0x44961d7e	1200.9216
170	0x44084b84	545.17993
171	0x43e93742	466.4317
172	0x44142421	592.5645
173	0x4377080d	247.03145
174	0x44837f35	1051.9752
175	0x43e1c6e7	451.55392
176	0x4461813b	902.0192
177	0x439f341b	318.40707
178	0x43ca0f82	404.12115
179	0x434cc43e	204.76657
180	0x43c90268	402.0188
181	0x4424784f	657.8798
182	0x43a7c15f	335.5107
183	0x43d8c0a2	433.50494
184	0x447c24b8	1008.5737
185	0x43c6ee29	397.86063
186	0x43f139af	482.45065
187	0x4418e0ae	611.5106
188	0x439eae81	317.3633
189	0x435d4e92	221.30692
190	0x443b25ec	748.5925
191	0x43d980d1	435.00638

exp_avg f4 [64]
0	0x3e87350f	0.26407668
1	0x3f2e6e27	0.6813683
2	0x406f2ede	3.7372355
3	0x3eb8f1ec	0.36122072
4	0xc06efb8d	-3.7341034
5	0xc09d3ba8	-4.9135323
6	0xbffe6738	-1.987525
7	0x405f0131	3.4844477
8	0x40de4def	6.9470134
9	0x40245e91	2.5682719
10	0x3db0b750	0.08628714
11	0x3f47d76a	0.7806307
12	0x3f8812d2	1.0630744
13	0x40bdb2f7	5.9280963
14	0x3f75d3d8	0.9602637
15	0xc016d197	-2.3565423
16	0xbed913fd	-0.42398062
17	0x40f9cac8	7.8060036
18	0x40a0b3f7	5.0219684
19	0xc0486d83	-3.131684
20	0xbf04c142	-0.5185739
21	0xc0caa542	-6.332673
22	0x3f7da345	0.99077255
23	0x3f98b307	1.1929635
24	0x40838a49	4.1106305
25	0xbf0cc079	-0.5498119
26	0xc085fbde	-4.1869955
27	0x3f03e5a8	0.515223
28	0xbffffd6a	-1.9999211
29	0x40000795	2.0004628
30	0x4085070c	4.15711
31	0xbfe6938a	-1.8013775
32	0x3f9db64c	1.2321258
33	0x3e1afc47	0.15135299
34	0xbfe6a4a5	-1.8018996
35	0xbd324ab0	-0.04352826
36	0xbf9d73ad	-1.2300926
37	0xc018bb5b	-2.3864353
38	0xc01ab6c8	-2.417406
39	0xbe90a5bd	-0.28251448
40	0x3e9ea01f	0.30981538
41	0x3fba3de6	1.455014
42	0x4041eb8b	3.0300014
43	0x3f4a5601	0.7903748
44	0x3e89dfd4	0.2692858
45	0xc0b72c00	-5.724121
46	0xbf36c6bd	-0.71397
47	0x3fb4d82b	1.4128469
48	0x3f1a5d8e	0.60299003
49	0xbfe874d5	-1.8160654
50	0x409b5c09	4.8549848
51	0x3cc710a9	0.024299936
52	0xc08da5bc	-4.4264812
53	0x3fc17d1a	1.5116303
54	0x4016e86e	2.3579364
55	0xc1246967	-10.275733
56	0x3f260d4d	0.64864045
57	0x4073127b	3.798003
58	0x40830fe5	4.0956903
59	0xbf2fb3e0	-0.6863384
60	0xc0a0ac3f	-5.021026
61	0x3f5ef60a	0.87094176
62	0x400e4a53	2.2232864
63	0x3eb14b9b	0.34627995

exp_avg_sq f4 [64]
0	0x43c7e1c0	399.76367
1	0x4354ba81	212.72853
2	0x445e7498	889.8218
3	0x44100219	576.0328
4	0x43af8dde	351.10834
5	0x43a0e352	321.77594
6	0x43339359	179.57558
7	0x43270f02	167.05862
8	0x4404c4d0	531.0752
9	0x44b479ad	1443.8024
10	0x43dd33c2	442.40436
11	0x43259a37	165.6024
12	0x44318cb3	710.1984
13	0x43c8c4a8	401.53638
14	0x43f7bc9e	495.47357
15	0x45118fa5	2328.9778
16	0x43ab9343	343.15048
17	0x451e09d4	2528.6143
18	0x436b2c27	235.17247
19	0x44079711	542.3604
20	0x440d666f	565.6005
21	0x43dc0c78	440.0974
22	0x423df333	47.4875
23	0x4434709b	721.75946
24	0x43ac935b	345.1512
25	0x435ece2a	222.80533
26	0x431b91cc	155.56952
27	0x43a3ae81	327.3633
28	0x4405fcb0	535.94824
29	0x43f47eb1	488.98978
30	0x43d991ea	435.13995
31	0x446ee438	955.5659
32	0x442ea2a0	698.541
33	0x440efafb	571.9216
34	0x4328274d	168.15352
35	0x43b583cc	363.02966
36	0x442ad5cf	683.34076
37	0x4456d114	859.26685
38	0x443e0723	760.1115
39	0x43ab7bac	342.9662
40	0x439adb45	309.71304
41	0x440424eb	528.57684
42	0x446771f3	925.78046
43	0x4420b201	642.7813
44	0x43d21ea7	420.23947
45	0x44106e01	577.7188
46	0x43120e95	146.05696
47	0x4323c22a	163.75845
48	0x43f91a76	498.20673
49	0x437aea0d	250.91426
50	0x4421ec6d	647.69415
51	0x4347a478	199.64246
52	0x438a8b31	277.08743
53	0x4424ea8d	659.66486
54	0x44cdf47c	1647.6401
55	0x4410f144	579.7698
56	0x443f3099	764.75934
57	0x441d3616	628.8451
58	0x447de56b	1015.58466
59	0x43b068be	352.8183
60	0x43edbcc9	475.47488
61	0x43b5baae	363.45844
62	0x43eaea45	469.83023
63	0x43de282b	444.3138

exp_avg f4 [32, 64]
0	0x3f5b7332	0.8572265
1	0x3c9feb58	0.0195214
2	0x3cfe6c03	0.031057363
3	0x3fe8bb5e	1.818218
4	0x3ea6d85e	0.3258695
5	0xbdbbfb8f	-0.0917884
6	0x3f4cb773	0.7996742
7	0xbfb70e9c	-1.4301333
8	0x3ff93fa8	1.9472551
9	0x3f477f78	0.77928877
10	0xbed450ea	-0.41467983
11	0x3ff6742e	1.9254205
12	0x400671fa	2.1007066
13	0x3e8923cd	0.26785126
14	0xbf21533d	-0.63017637
15	0x3f98b8a4	1.1931348
16	0x3e23de90	0.1600287
17	0x3f5c3697	0.860208
18	0xbc8e5fc3	-0.017379647
19	0x40128a5c	2.2896948
20	0x3f09cb7b	0.5382611
21	0x40066e25	2.1004727
22	0xbf9c5b19	-1.2215301
23	0x3fae023a	1.359443
24	0x40225aa9	2.5367835
25	0x3fbec6db	1.4904436
26	0xbeea2995	-0.4573485
27	0x3fb716e2	1.4303858
28	0x3fbe438f	1.4864367
29	0x401490e3	2.3213432
30	0x4007c84e	2.1216006
31	0x3f824789	1.0178081
32	0x40bf1c24	5.972185
33	0x3f049367	0.5178742
34	0x3ed84699	0.42241362
35	0x3e826aec	0.254722
36	0x3e83e595	0.25761095
37	0x402bb481	2.682892
38	0xbc726499	-0.014794492
39	0x3fdaf26c	1.7105231
40	0x3ed9465e	0.42436498
41	0x3f203a51	0.62588984
42	0x3f25578f	0.6458673
43	0xc015ec23	-2.3425376
44	0x3ee58a90	0.44832277
45	0x4029c509	2.652651
46	0x3f2dfb20	0.6796131
47	0xbf7a8127	-0.9785332
48	0x3e9a5032	0.3013931
49	0x3facb150	1.3491611
50	0xbfb826f1	-1.4386884
51	0xb80769df	-3.228511e-05
52	0x3ea66c8e	0.32504696
53	0x3f2224f7	0.63337654
54	0x4002682e	2.0376086
55	0x3fd8d89a	1.6941102
56	0x3eb70a5b	0.35750088
57	0xc08d8345	-4.422274
58	0x3eeff19b	0.46864018
59	0x3f8aa3bc	1.0831218
60	0xbff1d58a	-1.8893292
61	0x40425ea2	3.037026
62	0x3f15f48f	0.5857629
63	0x3f8ef403	1.1168216
64	0x40de946a	6.955617
65	0x3f0c2e87	0.54758495
66	0xbfa1edd7	-1.2650708
67	0x3e01db6f	0.12681364
68	0xc06f3f3f	-3.7382352
69	0x3fa0ab12	1.2552207
70	0x4140074f	12.001784
71	0x3f9f6d97	1.2455319
72	0x41308cd5	11.034383
73	0x40cc358c	6.3815365
74	0x40be2015	5.9414163
75	0xbfa2914b	-1.270059
76	0xbf285b30	-0.6576414
77	0x40f6e2eb	7.7152
78	0x409fc057	4.992229
79	0x4081f991	4.0617146
80	0xc04000d9	-3.0000517
81	0x40715dec	3.7713575
82	0xbed7a56b	-0.4211839
83	0xbf07c89d	-0.53040487
84	0xc088aca2	-4.2710733
85	0x3dcb6a2f	0.09932362
86	0x3eb4d200	0.35316467
87	0x4027d4ec	2.6223707
88	0x416786fa	14.470453
89	0xbf8b41c0	-1.087944
90	0x3fe5aa92	1.7942679
91	0x3fef528e	1.8697069
92	0x4088c80b	4.2744193
93	0x3e197eef	0.14989828
94	0x400c4c15	2.1921437
95	0xc0155b88	-2.3337116
96	0xc028f8f2	-2.6401944
97	0xc020b4a8	-2.5110264
98	0x402e7880	2.7261047
99	0xbfbba90d	-1.4660965
100	0xbeeb4ed7	-0.45958588
101	0xbf9f935b	-1.2466844
102	0x3e6d7af9	0.23191442
103	0xbe0e8f58	-0.13921869
104	0x3dad3035	0.084564604
105	0xc0cfe00d	-6.4961
106	0xc073037f	-3.7970884
107	0x4112976e	9.16197
108	0xc05520ff	-3.330139
109	0xc0459d74	-3.0877352
110	0x40526b9b	3.2878177
111	0x40a994b4	5.299402
112	0x410a2a1e	8.6352825
113	0xc0aa9dcc	-5.3317623
114	0x417e664b	15.899974
115	0x3f00ca64	0.50308824
116	0x407c4817	3.9419
117	0xc0784ae0	-3.87957
118	0x408648c5	4.196383
119	0x3fe3c412	1.7794211
120	0x406e5f9e	3.724586
121	0x411bd06e	9.738386
122	0xc076ccd0	-3.8562508
123	0xbfc94402	-1.5723879
124	0x405110de	3.2666545
125	0xbff3ee2e	-1.9057062
126	0x4181aef9	16.210436
127	0x40252799	2.5805418
128	0x3e4d43fb	0.20045464
129	0x3f5528a2	0.83265126
130	0x40a2bac0	5.0852966
131	0x40141832	2.3139768
132	0x40c8beb0	6.2732773
133	0x3faaa4a8	1.3331499
134	0x4030c753	2.7621658
135	0x3e4d105b	0.2002577
136	0x3fb51af2	1.4148848
137	0xbf2f3d75	-0.6845315
138	0xbf5cf18e	-0.86306083
139	0x3ed611dc	0.418105
140	0x3f845985	1.0339819
141	0xbe0b2feb	-0.13592498
142	0x3ead7067	0.3387482
143	0xbd0c39a2	-0.03423465
144	0x40dca28b	6.8948417
145	0x3eb3a6e8	0.35088277
146	0x3f9b6b31	1.2142087
147	0xbeb41ec4	-0.35179722
148	0x40a1c838	5.055691
149	0x3f3cefec	0.7380359
150	0x3e4cff29	0.20019211
151	0xbf82a492	-1.0206473
152	0x3fa5222c	1.2901053
153	0xbecf567d	-0.40495673
154	0xbf81d3b8	-1.0142736
155	0xbf639dfe	-0.8891295
156	0xbcfb4b6a	-0.030675609
157	0xbf1ad67f	-0.60483545
158	0xbdbccad7	-0.09218376
159	0x3e4a8eb9	0.19781007
160	0xbf479300	-0.7795868
161	0x40322260	2.783348
162	0x3f32471d	0.6963976
163	0x4052ee73	3.2958038
164	0x3edbbcfa	0.42917615
165	0x41114e82	9.081667
166	0x3e650057	0.22363411
167	0xc03eba9c	-2.9801397
168	0xbec1d3f5	-0.37857023
169	0x41364aca	11.393259
170	0x417503fa	15.313471
171	0x3f3387b1	0.70128924
172	0x4064097d	3.563079
173	0x3ee8368c	0.45354116
174	0x3f53c2db	0.827192
175	0x3f466307	0.77494854
176	0x3eb6f3fd	0.35733023
177	0x4147e85d	12.494229
178	0x3f38a53b	0.7212712
179	0x3da48412	0.08033003
180	0xbfca453a	-1.5802376
181	0x40b920b5	5.7852426
182	0x3f9e4cef	1.2367228
183	0x3fb547be	1.4162519
184	0xbf7373c4	-0.9509852
185	0x3fbc6f94	1.4721551
186	0x418b8fde	17.445248
187	0x3e549e7f	0.20763586
188	0x3ef7f787	0.48431036
189	0x41efcbb6	29.974468
190	0x3fc7f612	1.562197
191	0x3f1f37ef	0.6219472
192	0x3f5d180c	0.8636482
193	0xc0569228	-3.3526707
194	0x3f384f3b	0.71995896
195	0x40303c43	2.753678
196	0x40adf7b6	5.436488
197	0x3f1553dc	0.58331084
198	0x40151ccf	2.3298833
199	0xbe81af39	-0.25328997
200	0x40599b9a	3.4001222
201	0xc0852675	-4.1609445
202	0x40a6902b	5.2050986
203	0xc03add84	-2.9197702
204	0x40896ac4	4.294283
205	0x4071ce77	3.7782266
206	0xbee0b831	-0.43890527
207	0x3fe25e3d	1.7685009
208	0x40f48de7	7.642322
209	0x3e794bea	0.24345365
210	0xbe112aa8	-0.14176428
211	0x400f2976	2.2369056
212	0x40cf239f	6.4730983
213	0xc054918f	-3.3213842
214	0x3e0fbc60	0.14036703
215	0xbfb32a06	-1.39972
216	0x3d9ef1f1	0.077609904
217	0x402e6685	2.7250073
218	0x40244a08	2.5670185
219	0x4000ebac	2.0143843
220	0x401f178f	2.485813
221	0x405550ca	3.333056
222	0xc004ad5a	-2.0730805
223	0x4029788b	2.6479824
224	0xbfd9984d	-1.6999604
225	0x4027cb6d	2.6217911
226	0x3ebba688	0.3665049
227	0x407d7ebe	3.9608607
228	0x3f0dd4ba	0.5540272
229	0x3f3ba8e5	0.7330459
230	0xbfc418c5	-1.5320059
231	0x400e27f8	2.2211895
232	0xbe75a0b4	-0.23987085
233	0x417254b4	15.145679
234	0x41128682	9.157839
235	0x3fe18dbc	1.7621379
236	0x40fbc333	7.867578
237	0x3f5e1b4c	0.867604
238	0xc009369b	-2.1439579
239	0x40af751e	5.4830465
240	0x404bbe03	3.1834724
241	0x4152a1ac	13.164471
242	0x4083bcf7	4.116817
243	0xbe6ee3a4	-0.23329026
244	0x3f68ca92	0.909341
245	0x40a6df4b	5.2147574
246	0xc13b0dd7	-11.690879
247	0xbfa7e2ce	-1.311609
248	0x3fcb484a	1.5881436
249	0xbffa484e	-1.9553316
250	0x4152130a	13.129648
251	0xbb92f943	-0.0044852807
252	0xbf825337	-1.0181645
253	0x4122952e	10.161421
254	0x3fb125d4	1.3839669
255	0xc025c316	-2.590032

exp_avg_sq f4 [32, 64]
0	0x441f25cb	636.5905
1	0x44eba527	1885.161
2	0x44e7bf21	1853.9728
3	0x44076383	541.5549
4	0x44e6bb3f	1845.8514
5	0x41917e70	18.186737
6	0x44662e8e	920.7274
7	0x41f156f9	30.167467
8	0x466aa236	15016.553
9	0x45c9431b	6440.388
10	0x458839e5	4359.237
11	0x4421c1dc	647.02905
12	0x44a3482f	1306.2557
13	0x446f63bd	957.5584
14	0x454548da	3156.5532
15	0x43ab9fb2	343.24762
16	0x44159d17	598.4545
17	0x439828ab	304.31772
18	0x41a281dc	20.313408
19	0x4407c4a5	543.0726
20	0x44fd0f5b	2024.4799
21	0x44b698c1	1460.7736
22	0x429bdc1b	77.92989
23	0x45427ac3	3111.6726
24	0x45d0aa17	6677.261
25	0x4387e633	271.79843
26	0x43d23d44	420.47864
27	0x43396156	185.38022
28	0x444711ac	796.2761
29	0x44884cf3	1090.4047
30	0x451b8981	2488.594
31	0x44115034	581.2532
32	0x4601df87	8311.882
33	0x44c1a610	1549.1895
34	0x42093607	34.30276
35	0x4382a008	261.25024
36	0x41c7a9ec	24.95797
37	0x45f18ea5	7729.8306
38	0x438c388b	280.44174
39	0x43e4acf9	457.35135
40	0x42f7ac05	123.835976
41	0x45901b73	4611.431
42	0x453606b7	2912.4197
43	0x4522a1b0	2602.1055
44	0x44afec63	1407.3871
45	0x44a0bbb4	1285.8657
46	0x4506a97c	2154.5928
47	0x45937b67	4719.4253
48	0x454ed6f1	3309.4338
49	0x45cd9aa8	6579.332
50	0x458ed1b1	4570.2114
51	0x407ed85e	3.981956
52	0x451cfbd4	2511.7393
53	0x45160352	2400.2075
54	0x46004afb	8210.745
55	0x43d3e03c	423.75183
56	0x45470c90	3184.7852
57	0x45f22eb7	7749.8394
58	0x459bfe8f	4991.82
59	0x4355bc6f	213.73607
60	0x438c7451	280.90872
61	0x4634004d	11520.075
62	0x46388c85	11811.13
63	0x442b95f8	686.34326
64	0x441c0dd5	624.2161
65	0x4400da2a	515.4088
66	0x43ac7222	344.89166
67	0x43197821	153.46925
68	0x434033de	192.2026
69	0x428162cb	64.692955
70	0x44cfc77a	1662.2336
71	0x4144dadb	12.3034315
72	0x45c01f17	6147.886
73	0x45466705	3174.4387
74	0x44eb6c8f	1883.3925
75	0x43282144	168.12994
76	0x43b49c6d	361.22208
77	0x4454a899	850.63434
78	0x44b5a3af	1453.1151
79	0x435ad4d1	218.83131
80	0x42c97f55	100.748695
81	0x4393685e	294.81537
82	0x409f18df	4.971786
83	0x434d8963	205.53667
84	0x4304ea09	132.9142
85	0x43c5816a	395.01105
86	0x41a56132	20.672459
87	0x44cbcc40	1630.3828
88	0x457a043e	4000.2651
89	0x42bfe17f	95.94042
90	0x4385ca8e	267.58246
91	0x430c9520	140.58252
92	0x441caa60	626.6621
93	0x44000817	512.1264
94	0x44713377	964.80414
95	0x42e8453f	116.13525
96	0x455a34ef	3491.3083
97	0x433cedcf	188.92894
98	0x429ad8a5	77.423134
99	0x422a7236	42.611534
100	0x4069f9a7	3.6558626
101	0x447fc818	1023.12646
102	0x426c940b	59.144573
103	0x43244dc4	164.30377
104	0x41e080eb	28.062948
105	0x4424dceb	659.45184
106	0x436331bb	227.19426
107	0x44e3d9ad	1822.8024
108	0x4341a2bb	193.63567
109	0x438516db	266.17856
110	0x445518c5	852.387
111	0x45249f1b	2633.944
112	0x450a0532	2208.3247
113	0x44657ad8	917.91943
114	0x4568b52d	3723.3235
115	0x42d6580e	107.17198
116	0x44bc244d	1505.1344
117	0x438b98f2	279.1949
118	0x4526c49d	2668.2883
119	0x43fb10e8	502.13208
120	0x44f5ec43	1967.3832
121	0x4580036b	4096.4272
122	0x4440014e	768.0204
123	0x426efa99	59.744724
124	0x43b51480	362.16016
125	0x4501c4de	2076.3042
126	0x45f1e365	7740.4243
127	0x43ce27fd	412.3124
128	0x432f5e2f	175.3679
129	0x432feb92	175.9202
130	0x4518538c	2437.2217
131	0x43b9051e	370.03998
132	0x4497f12b	1215.5365
133	0x429f550a	79.66609
134	0x43977ebd	302.99014
135	0x406f7359	3.7414153
136	0x44cae008	1623.001
137	0x43d1a349	419.27567
138	0x43bd6d5d	378.8544
139	0x422a4c84	42.574722
140	0x442b966d	686.3504
141	0x430ecfef	142.81224
142	0x43b6d593	365.66855
143	0x42a11654	80.54361
144	0x44367843	729.8791
145	0x42a6dfa2	83.43678
146	0x416b3166	14.69956
147	0x439f88ca	319.06866
148	0x44837681	1051.7032
149	0x43060887	134.03331
150	0x40f2f5d0	7.5925064
151	0x439ed905	317.69547
152	0x445860db	865.51337
153	0x4362868d	226.52559
154	0x4262332f	56.549984
155	0x4316c490	150.76782
156	0x4383e059	263.75272
157	0x43f85c4a	496.721
158	0x4370a322	240.63724
159	0x43bfeae4	383.83508
160	0x43f22e78	484.36304
161	0x44b81095	1472.5182
162	0x418fa06e	17.953335
163	0x43ae4b42	348.58795
164	0x416c4697	14.767234
165	0x458d9eae	4531.835
166	0x41f134f3	30.150854
167	0x43bbe853	375.81503
168	0x41c43e69	24.530474
169	0x4590d6d8	4634.8555
170	0x450529b9	2130.6077
171	0x43a42d83	328.35556
172	0x44b020fb	1409.0306
173	0x441d1720	628.3613
174	0x436a7959	234.47401
175	0x44017c38	517.9409
176	0x4395e451	299.78372
177	0x45cd52f0	6570.367
178	0x447a36c3	1000.85565
179	0x40b958c2	5.7920847
180	0x4391f511	291.91458
181	0x450399be	2105.609
182	0x4404bf44	530.9885
183	0x428127e9	64.57795
184	0x43c678d3	396.94394
185	0x44086ce9	545.7017
186	0x45af9df1	5619.7427
187	0x416cd9c9	14.80317
188	0x4222bd20	40.684692
189	0x46513f4c	13391.824
190	0x44b4e413	1447.1273
191	0x42a10802	80.51564
192	0x442dec1b	695.68915
193	0x45097ce1	2199.805
194	0x448f6720	1147.2227
195	0x437938f5	249.22249
196	0x442a0353	680.05194
197	0x4386ffdb	269.99887
198	0x452400a3	2624.0398
199	0x421dbc4b	39.43388
200	0x46159dc4	9575.441
201	0x45702bc7	3842.736
202	0x4550cb24	3340.6963
203	0x446b3e25	940.971
204	0x44129b92	586.4308
205	0x44230d21	652.20514
206	0x44fcbd1c	2021.9097
207	0x43578911	215.53542
208	0x43c69d16	397.22723
209	0x43e037a4	448.4347
210	0x41bbaa9b	23.458303
211	0x4381924e	259.143
212	0x440e2162	568.5216
213	0x4500736d	2055.214
214	0x422eb721	43.678837
215	0x44f2aaf4	1941.3423
216	0x45993b89	4903.442
217	0x432bc80f	171.78148
218	0x437fa687	255.6505
219	0x430c7425	140.45369
220	0x4412468c	585.1023
221	0x4412d250	587.28613
222	0x4506cbcd	2156.7375
223	0x43d68c54	429.0963
224	0x459783ea	4848.4893
225	0x44470676	796.10095
226	0x42cd394c	102.61191
227	0x4325dd8f	165.86546
228	0x414f2dbe	12.948668
229	0x454e239a	3298.225
230	0x437bc22e	251.75851
231	0x4382c6cb	261.55307
232	0x42ec6ff0	118.21863
233	0x4516af4b	2410.9558
234	0x4482d010	1046.502
235	0x44fe4149	2034.0402
236	0x44361197	728.27484
237	0x448855f5	1090.6862
238	0x4564206e	3650.0269
239	0x454953ba	3221.233
240	0x4526ce72	2668.9028
241	0x455f53b0	3573.2305
242	0x4545d668	3165.4004
243	0x4430c749	707.11383
244	0x44b7e406	1471.1257
245	0x44842ded	1057.4352
246	0x46366cde	11675.217
247	0x4513de6b	2365.9011
248	0x44fd0bf4	2024.3735
249	0x45ac2dea	5509.7393
250	0x4535762c	2903.3857
251	0x43d529c0	426.32617
252	0x44d78a97	1724.3309
253	0x45d4ca3a	6809.2783
254	0x4602d419	8373.024
255	0x4467cab9	927.16754

exp_avg f4 [32]
0	0x4090148a	4.502507
1	0xbe707db4	-0.23485452
2	0x4023b76c	2.5580702
3	0x40236282	2.5528874
4	0x401a7418	2.4133358
5	0x4060e92d	3.514232
6	0x407c0666	3.9378905
7	0x409cf765	4.9051995
8	0x40cf74b5	6.4829965
9	0xbf1717df	-0.590208
10	0x3fca5387	1.580674
11	0x40756f02	3.8349004
12	0xc033b7d6	-2.8080955
13	0x3fc923f6	1.57141
14	0x40040187	2.0625932
15	0x3f9f41b3	1.2441925
16	0x3fc34a42	1.5257037
17	0x40ff267a	7.973447
18	0xc01c61f6	-2.443479
19	0xbfbd520e	-1.4790666
20	0xc088cf4c	-4.275305
21	0xbe36d781	-0.17855646
22	0x41228294	10.156879
23	0x40fb3d1f	7.851211
24	0x3f65d306	0.8977512
25	0x3f8e1e53	1.1103004
26	0xbe8208a2	-0.2539721
27	0xbf24171c	-0.6409776
28	0xbe9ca808	-0.30596948
29	0x3f17c274	0.59281087
30	0xbf671048	-0.9025922
31	0xbfe86487	-1.8155679

exp_avg_sq f4 [32]
0	0x45097da2	2199.852
1	0x441a721b	617.7829
2	0x44442bb1	784.6827
3	0x44ced8d4	1654.7759
4	0x45c700ee	6368.116
5	0x4504eb29	2126.6975
6	0x4306ed42	134.92679
7	0x445a3418	872.81396
8	0x447139cc	964.9031
9	0x438bb763	279.4327
10	0x4286f826	67.484665
11	0x43f8ccd1	497.60013
12	0x4461cbb2	903.18274
13	0x449a1a5e	1232.824
14	0x44071f21	540.4864
15	0x44210acc	644.1687
16	0x45053742	2131.4536
17	0x451fd6b4	2557.419
18	0x4414f1be	595.7772
19	0x432210b3	162.06523
20	0x4529f5bd	2719.3586
21	0x436eef3f	238.93456
22	0x44a15920	1290.7852
23	0x4433930b	718.29755
24	0x443df49f	759.8222
25	0x440da4ff	566.57806
26	0x439ed2fe	317.64838
27	0x4488cc62	1094.387
28	0x44968108	1204.0322
29	0x431c2ea4	156.18219
30	0x44189e6d	610.4754
31	0x44e61c8e	1840.8923
