Regression/save_models/T_final.ckpt (torch, 66815 bytes, 38 tensors)

_backbone.linear_layers.0.weight f4 [64, 3]
000000 95 c7 0d 3e a0 4e 89 3f 6e fe c7 be eb 6d ac 3b
       0.13845666 1.072712 -0.39061302 0.0052621267
000010 35 03 94 bf 65 3c 00 3f d2 65 d1 be fd ec c0 bf
       -1.1563479 0.50092155 -0.40897995 -1.5072323
000020 36 5f 1e 3f 6a 37 b1 bf 92 81 8f 3f d9 00 04 c0
       0.6186403 -1.3845036 1.1211417 -2.0625517
000030 31 4a d3 bf 41 a3 44 3f b4 da f5 be 9b 09 96 3d
       -1.6507016 0.76811606 -0.4801842 0.07326051
000040 2a 28 e3 3e 59 64 6d bf d6 76 10 3f f7 09 cd 3f
       0.4436658 -0.92731243 0.5643133 1.6018666
000050 f1 42 06 3e 3f da f5 3e cf c0 8f bf d3 80 9c bf
       0.13111474 0.4801807 -1.1230716 -1.2226814
000060 bb b0 68 3f 14 26 13 bf 2a 7a 84 3e 26 29 31 3e
       0.9089467 -0.5747998 0.25874454 0.17300853
000070 a7 8c 25 40 e0 ef 93 3f 2c 56 38 3f 4c 17 60 3f
       2.5867097 1.1557579 0.7200649 0.8753555
000080 3d 8f eb 3e c9 b0 6f bf c5 c3 5b bf 44 cc 11 3d
       0.4600772 -0.9362913 -0.85845596 0.035595194
000090 8c 34 96 3e 67 ae 1d 3e b7 60 09 3f b7 32 d9 3e
       0.29336965 0.1539856 0.536632 0.42421505
0000a0 41 ee b7 3c c5 9e e6 3e ed 1d 3f 3f ae 06 52 3e
       0.022452476 0.45043007 0.7465504 0.2051036
0000b0 60 4f 2d be 39 b7 2d be 3c 16 84 bf 37 7b 60 be
       -0.1692481 -0.16964425 -1.0319285 -0.21922003
0000c0 b1 2b a8 be 3f 1c 34 3f 5b 37 f5 be 40 5f 0a 3f
       -0.32845834 0.703556 -0.47893795 0.5405159
0000d0 7a 67 13 bf 95 05 98 3e 75 7e ee bd 99 6f af be
       -0.5757977 0.2969176 -0.116452135 -0.3426483
0000e0 2f 73 1f 3f a8 b5 b8 3f d9 ac 94 be 7a 59 eb bd
       0.6228513 1.4430437 -0.29038122 -0.11491676
0000f0 e2 37 35 3f cd 2a 85 3f 9d 32 30 3f a8 1b 07 3f
       0.70788395 1.0403687 0.6882723 0.52776575
000100 96 aa b0 bf 6f 5c b5 bd 78 50 e8 3e 94 a0 57 bf
       -1.3802059 -0.08855521 0.45373893 -0.842294
000110 f5 34 cd 3f e1 bf ec be ca a6 3e 3f f2 8b 81 3f
       1.6031786 -0.46240142 0.7447325 1.0120833
000120 67 2e 8b be 17 2f d7 be a8 08 55 3e d5 ed 96 3f
       -0.2718384 -0.42028114 0.20804083 1.179133
000130 39 1b 9c 3f c5 a0 96 3d c7 a2 a0 be 2b 6f 6b 3f
       1.2195808 0.07354883 -0.3137419 0.91966504
000140 9a 10 14 3f b4 30 27 bf 8e d6 72 3f 4c 72 a2 bd
       0.5783783 -0.6530869 0.94858634 -0.07931957
000150 4f fa 55 3e c8 4b 68 be 2b 58 da be 7d f5 87 3f
       0.20896266 -0.22685158 -0.42645392 1.0621792
000160 9d 88 2b bf 67 d9 b4 3d 0a fa 43 bd 57 af 87 bf
       -0.6700533 0.08830529 -0.047845878 -1.0600384
000170 ac d1 f1 be cb 1a a1 3e 9d 74 b6 bf af 2e 35 3f
       -0.4723028 0.31465754 -1.4254338 0.7077436
000180 9e 87 e9 3e 6f f6 53 3f 59 f4 0e 3f 28 cc 6c 3f
       0.4561128 0.827979 0.55841595 0.9249902
000190 5a c5 08 be d2 2f 03 bf e4 57 90 3e 67 45 78 3f
       -0.13356534 -0.51244843 0.28192055 0.969809
0001a0 04 bd a4 3e a4 2a 34 be e5 a8 0d 3e 51 21 ff bf
       0.32175457 -0.17594391 0.1383396 -1.9932042
0001b0 e9 04 15 be a7 20 e5 be 72 cf f1 bf af 46 9d be
       -0.14552654 -0.44751474 -1.8891432 -0.3071799
0001c0 3f 3c 91 3f cf ba dc 3e 42 bf 2a bf 2b 2e 11 3f
       1.1346511 0.43111274 -0.66698086 0.5671107
0001d0 8a 79 e8 3e 08 83 e4 bd e0 26 ab bd b1 7e ee bd
       0.45405227 -0.11157805 -0.08357024 -0.11645258
0001e0 d8 c9 67 3f b6 a7 16 3f e8 72 2a bf c8 30 ba be
       0.90542364 0.58849657 -0.66581583 -0.36365342
0001f0 b1 df 62 be 3f 1a 29 3f 74 bb c2 3f 6a 62 35 be
       -0.22155644 0.66055673 1.5213456 -0.17713323
000200 52 0b 4a 3e e2 94 6c bf fd 10 2b bf e3 c7 93 3f
       0.19730881 -0.9241468 -0.668228 1.1545376
000210 92 b0 16 3f e3 2a 9e 3e b0 01 4d 3f 0c b0 89 be
       0.58863175 0.30892095 0.800807 -0.26892126
000220 1a 07 5e 3d 2a 6f d6 be 78 af 53 3f 9a 4d 62 3d
       0.05420599 -0.41881686 0.8268962 0.055249788
000230 c1 e4 65 bf 69 bb aa bf 79 f8 bd 3e f3 9e 95 bf
       -0.89802176 -1.3338443 0.37103632 -1.1689132
000240 b6 f5 9e 3f 41 39 1e 3f a8 aa 9e be 9d fe 12 bf
       1.2418735 0.6180611 -0.30989575 -0.5741976
000250 9a 1c 45 3f f0 9a 51 3f 4d 99 2a be 19 13 85 3e
       0.7699677 0.8187704 -0.16660042 0.25991133
000260 cf 2f 1c 3f 19 8d e3 3e 12 c8 88 be 9a 57 6a 3f
       0.6101045 0.44443586 -0.26715142 0.9153992
000270 f5 14 1a 3d 8d bf 3c 3f 02 1a 5e bf ce a7 22 bf
       0.037617642 0.73729783 -0.86758435 -0.635373
000280 fb 6d cf 3d c4 c7 14 bf 79 fd a0 3f 47 43 b3 bf
       0.10128399 -0.5811732 1.2577354 -1.4004906
000290 5e 33 8e 3e 9d 8c 26 3e 98 a5 9c 3f 9c d5 af be
       0.27773565 0.16264577 1.2238035 -0.3434266
0002a0 31 7c 22 3d 09 41 24 bf aa 6e 39 3f ae b9 97 bf
       0.03966922 -0.64161736 0.72434485 -1.185354
0002b0 31 6e 61 3f 4e 01 d5 3f 70 8d 89 3e 72 58 5c 3e
       0.88058764 1.6641023 0.2686572 0.21518114
0002c0 41 bd d8 3e c0 22 c9 be e8 0c 93 3f 3f 4c 89 3e
       0.4233189 -0.39284325 1.1488314 0.26815984
0002d0 f0 1f 3d bf 2d 03 58 bf 21 ff d6 be b0 d3 5c 3f
       -0.7387686 -0.84379846 -0.41991523 0.8626051
0002e0 81 21 17 bf 23 99 c4 3f 89 af b2 3e 56 09 68 3f
       -0.590355 1.5359234 0.34899548 0.90639246
0002f0 14 21 ff 3c 99 b1 88 bf 01 d9 61 bf 35 bd f3 be
       0.031143703 -1.0679199 -0.88221747 -0.4760529

_backbone.linear_layers.0.bias f4 [64]
000000 67 2f 1e 3f c2 0a e7 be 66 69 c4 be 0c ce 54 3e
       0.6179108 -0.45125395 -0.38361663 0.20781726
000010 0c 7b ae 3e fa 56 3b 3f 22 34 f7 3e 18 72 e9 be
       0.34078252 0.7317959 0.48281962 -0.4559486
000020 90 e0 f3 3d 7c a0 c9 be ad cc 18 bf b9 ca 3e 3f
       0.11908066 -0.39380252 -0.5968731 0.7452808
000030 34 42 c7 be a6 d8 34 3f 81 48 12 3f 4b b2 c0 bd
       -0.38917696 0.7064308 0.5714188 -0.09409007
000040 85 ab 57 be 32 c9 bc 3e 94 16 0e 3f c3 f8 1d 3e
       -0.21061523 0.3687225 0.555032 0.15426926
000050 51 08 1d 3f 4b 26 89 3e c6 75 c0 3d 7d 40 ab 3d
       0.61340815 0.26787028 0.093974635 0.083619095
000060 ed d0 46 3e 24 03 4c 3e b0 c0 be 3e 60 63 81 be
       0.19415636 0.19923073 0.37256384 -0.2527113
000070 4b f7 59 bd c0 96 9f 3e 30 66 17 bf 40 00 06 bf
       -0.053214353 0.311697 -0.591403 -0.5234413
000080 3a 54 fc 3c 54 c4 85 3c 51 f7 43 be ca 9b 65 bf
       0.030801881 0.016328968 -0.19137312 -0.8969084
000090 f7 3f 35 3f 48 24 c6 bd fd 31 04 3f 88 70 48 3f
       0.7080073 -0.09674889 0.51638776 0.7829671
0000a0 86 e4 1a 3f 63 74 fe 3e cc 47 bb be 1d ab c0 be
       0.6050495 0.4969817 -0.36578214 -0.3763055
0000b0 a4 77 90 3e 3a 0a 0c bf c9 d8 98 be 2f b6 4e 3e
       0.2821628 -0.54703104 -0.29852894 0.20186685
0000c0 fa cd a0 be bf cd 13 3f 36 85 bf 3e e8 53 84 be
       -0.31407148 0.5773582 0.3740632 -0.25845265
0000d0 3c 96 28 3e 6b 2d 04 bf 46 e1 b7 be 5a 16 fa 3e
       0.1646356 -0.516318 -0.35914057 0.48845178
0000e0 03 3e 4b 3f ad 62 60 be b8 77 15 3f 06 c8 69 be
       0.793915 -0.21912642 0.583858 -0.22830209
0000f0 47 6d 90 3e 1a ee e7 be b1 94 58 be 5e 8c 18 bf
       0.28208372 -0.45298845 -0.21150471 -0.59589183

_backbone.linear_layers.3.weight f4 [32, 64]
000000 2e f1 95 3e 8f 21 46 3e 7d a3 9d 3d 46 69 73 be
       0.29285568 0.19348739 0.076971985 -0.23770627
000010 10 36 1a bd 23 fd cc 3d 70 35 e4 3d b5 d4 fb bc
       -0.037649214 0.100092195 0.11143005 -0.030741075
000020 e6 99 c7 3d 40 56 78 3e 01 af 95 bd b5 05 db bd
       0.09746151 0.24251652 -0.0730877 -0.10694448
000030 b4 87 b3 bd 6a 2b 29 3d e3 87 79 3e 18 5f 7f bd
       -0.08766118 0.04130117 0.24368243 -0.062346548
000040 bc c5 68 be 07 1f 3e 3e 13 eb 7f be e4 3e 77 bc
       -0.2273168 0.18566523 -0.24992017 -0.015090678
000050 a2 24 5c be 42 5b 5d be f3 37 9a bd 85 40 a0 bc
       -0.2149835 -0.21616843 -0.07530203 -0.019562015
000060 0f b3 b9 3d 8f c3 16 bc 32 9f 5b bd 76 85 10 3e
       0.09067356 -0.009201898 -0.053618617 0.14113411
000070 eb 17 71 3e d2 99 a1 be 67 03 1f be 21 eb 9b 3d
       0.2354428 -0.31562668 -0.15528642 0.07613207
000080 99 6b a9 bd cb 4b c1 3d d1 9b 1e bd 68 31 db 3c
       -0.08272476 0.094382845 -0.038722817 0.026756957
000090 47 19 47 be 45 b2 10 bd 3c 8c 29 3d f9 fc 9f ba
       -0.19443236 -0.03532626 0.041393504 -0.0012206129
0000a0 5f a6 15 bd 2e f8 18 3e c8 96 a1 3e 1d 80 15 be
       -0.036535617 0.14938423 0.3156035 -0.14599653
0000b0 fc 91 da bd d2 6e 7c 3d 86 93 9e bd 5d 7e 0d bd
       -0.106723756 0.061629124 -0.077429816 -0.034544338
0000c0 5b 11 1b be 50 10 54 3e 73 cd 68 bd a3 0f 83 3d
       -0.1514334 0.20709348 -0.056836557 0.06399467
0000d0 93 c2 4f be 40 3f 44 3d 75 b3 00 3e b2 38 0f be
       -0.20289068 0.047911882 0.12568457 -0.13986471
0000e0 8a 97 9d 3e c4 06 5f be 7f 57 20 be c4 96 fd 3d
       0.30779678 -0.21779925 -0.15658377 0.12382272
0000f0 3c cc 91 3d be 24 da 3c c5 cf 15 be 68 e9 35 3d
       0.07119033 0.026628848 -0.14630039 0.044412047
000100 04 c6 e8 3d a4 f2 0e 3d 59 1e 1e 3e 19 ac 96 3e
       0.113658935 0.03489937 0.15441264 0.29428175
000110 d3 75 aa bd 0f 82 10 3e a5 33 26 3c cf eb 27 3e
       -0.083232544 0.14112113 0.010144149 0.16398548
000120 68 d0 87 be 7b dc ef bc 6a 2a a6 3d be 12 6e 3e
       -0.2652619 -0.029279938 0.081135586 0.23249337
000130 78 b8 8c 3c be ae d8 3d dd 34 94 3e 75 f8 73 3e
       0.017177805 0.105802044 0.2894658 0.23825248
000140 72 f2 47 3d 2a 20 59 3e 73 05 ae 3e a1 f3 80 3e
       0.0488152 0.21203676 0.33988532 0.25185874
000150 2c a3 9a 3e 4c 68 07 be c8 74 ed 3c 7b 13 fd 3c
       0.30202615 -0.1322338 0.02898635 0.030893078
000160 8b f2 61 3e ef 09 73 3d 8e bd 5b be 2d b5 c7 bd
       0.22065179 0.059335645 -0.21459028 -0.097513534
000170 96 03 00 bd f9 23 5c 3e 02 fb c9 bd 50 f1 13 bd
       -0.03125342 0.21498097 -0.09862329 -0.036118805
000180 a2 b2 a1 3e 32 bc 54 be 5f b8 9d 3e a1 56 57 be
       0.315816 -0.20774916 0.30804726 -0.2102914
000190 aa 82 d9 bd ff 27 9f 3c 56 f5 3a 3c 85 e2 8d 3b
       -0.10620625 0.019428251 0.011411032 0.0043299817
0001a0 70 01 93 3e 10 d1 ed 3d 93 f2 34 be dd 55 93 3e
       0.28712034 0.11612141 -0.1767066 0.28776446
0001b0 f1 20 88 3d f1 d6 cd bd ad 74 3c bd 32 43 87 3d
       0.06646908 -0.100507624 -0.04600971 0.06604613
0001c0 e8 22 c2 3d 21 cc f6 bd 37 b4 9a 3e a1 f9 15 3e
       0.09479314 -0.12050653 0.30215618 0.14646007
0001d0 98 c2 0a 3e 81 26 35 bd 59 4e 7e 3e 71 b4 a7 3e
       0.13550794 -0.044226173 0.24834575 0.32754853
0001e0 ec 24 cd bc a5 88 05 be 9a 5e 6f be cc d2 2a be
       -0.02504202 -0.13040407 -0.23375931 -0.16681975
0001f0 31 80 34 be af 9e 18 3e 34 70 0a 3e 2d 23 c6 3d
       -0.17627026 0.14904283 0.13519365 0.09674678
000200 b2 62 09 be cc ec b7 bd 09 9f e7 bd 25 e5 29 3f
       -0.13416556 -0.08980712 -0.113096304 0.6636527
000210 6e e7 bb bd bb fe 38 3e 16 da 1e 3e 1d e3 72 3d
       -0.09175001 0.18065922 0.1551288 0.059298623
000220 94 66 9e 3e a7 91 75 be 05 0c c9 3c d5 8e 90 3c
       0.30937636 -0.23981343 0.024541864 0.017646233
000230 de 17 50 be 61 04 78 be 0c d0 09 3e f8 16 a3 bd
       -0.20321605 -0.2422042 0.1345827 -0.07963365
000240 c2 03 a5 3d c2 f3 0f 3e d6 8f d4 bd ba e3 c1 3d
       0.08057357 0.1405783 -0.10378997 0.094672635
000250 ad 80 da 3d e0 04 5b be 14 60 00 be 4e 1f 2e be
       0.10669074 -0.21388578 -0.12536651 -0.1700413
000260 3f 6f 9b 3d 47 a6 d9 bd 86 fd c6 3d 18 35 9c 3b
       0.07589578 -0.10627418 0.097163245 0.0047670715
000270 11 19 6b 3c 97 27 02 3e b9 da e4 3d 60 80 8d 3e
       0.014349238 0.12710415 0.111745305 0.27637005
000280 d4 bc 6b 3e 23 53 ca bc 1c c4 ad 3d 37 e4 f7 bd
       0.23021251 -0.024697846 0.084846705 -0.121040754
000290 fd 77 8a 3d 96 40 01 3d 1f 7a 3f be b6 f9 1b bd
       0.06761167 0.031555735 -0.18698929 -0.03807994
0002a0 32 b4 13 3e a0 78 dc bd 65 c1 c7 be 9a b2 a1 bd
       0.14424208 -0.10765195 -0.39014736 -0.07895394
0002b0 db 73 58 be e4 9b 44 3e 7c b0 8e 3e e7 ce 5d bd
       -0.21137945 0.19200093 0.27869022 -0.054152396
0002c0 b1 64 8f be ec 7a 31 3d f2 e6 a3 bd 3c 4c 0e be
       -0.2800651 0.043330118 -0.08003034 -0.13896269
0002d0 7d 49 86 3d eb 8e c9 3d 92 99 a5 3d 40 0c 2f 3e
       0.065569855 0.098417126 0.08085932 0.17094517
0002e0 cc 62 bd be 40 d6 54 3e 5a 30 1b 3e 68 b5 a4 bd
       -0.3698944 0.20784855 0.15155163 -0.08042413
0002f0 ab 3a 2d be c0 4c bd 3d 4d 56 67 be 89 88 7b 3e
       -0.16916911 0.092431545 -0.22591515 0.24563803
000300 1b 06 82 bd 99 4b c0 3d d0 db c9 bd 49 49 6e 3e
       -0.06348821 0.09389419 -0.09856379 0.23270144
000310 ac 83 57 be a9 89 69 be be 6c 28 3e 92 0d 2b bd
       -0.21046323 -0.2280642 0.16447732 -0.04176099
000320 c5 5f a4 bd 02 c6 86 3e cc eb 08 be ce da 05 3d
       -0.08026079 0.26322943 -0.133712 0.03267937
000330 20 0d cf 3e a7 a1 59 3e a4 3c a3 be e5 99 c9 3d
       0.404397 0.21253072 -0.31882203 0.09843806
000340 49 2f 03 3e 18 17 9a 3e d4 b0 b7 3c 8c 40 b8 bd
       0.12811007 0.30095744 0.022423185 -0.08996686
000350 6e 96 ea bd 57 d8 8d 3d c5 2d c5 bb fd 94 41 3e
       -0.114544734 0.06926029 -0.006017419 0.18904491
000360 11 bd ac bd 1b 98 1b be f8 92 a4 bb 42 7d 8b 3c
       -0.08434499 -0.15194742 -0.005022403 0.017027501
000370 75 a2 4e be bf d8 81 bb 76 ba 9b be 15 cf 31 3d
       -0.2017916 -0.0039626057 -0.30415696 0.04341038
000380 08 f0 f7 bd 49 d9 e5 bc e3 2f 44 bd 03 16 24 3c
       -0.12106329 -0.028057711 -0.04789723 0.010015014
000390 00 ba d4 3c 31 bf e6 3d 11 94 1e be b0 83 c6 bc
       0.025967598 0.112669356 -0.1548617 -0.024232715
0003a0 88 c3 8b 3e 5f 40 c1 3e cf 92 31 be 29 41 0a 3c
       0.27297616 0.37744424 -0.1734116 0.008438387
0003b0 ab 54 ce 3c 8f ef 1e be 22 cb b8 bd ff 88 d7 3d
       0.025186857 -0.15521072 -0.090231195 0.10524177
0003c0 1f 64 42 3e aa fd 54 3e 00 67 c8 bd 9a 49 a4 bd
       0.18983506 0.2079989 -0.09785271 -0.08021851
0003d0 e1 fd 62 bd d1 62 80 bd b7 07 4f 3e bd 43 b0 bd
       -0.0554179 -0.06268848 0.20217787 -0.0860667
0003e0 b5 01 09 3e d8 e3 7f 3d b0 e8 97 3d d9 aa 7e bd
       0.13379557 0.062473148 0.074174285 -0.06217465
0003f0 91 9d c3 bd 8c 4e 59 be 03 54 41 3e 01 b4 dc 3d
       -0.09551538 -0.2122137 0.18879704 0.107765205

_backbone.linear_layers.3.bias f4 [32]
000000 a2 01 08 be b2 76 f5 3d 24 62 eb bd b3 6c 1c 3e
       -0.13281873 0.1198553 -0.11493328 0.1527584
000010 c6 1f 98 3a 0b ab 3f 3e ca 5f 02 3e ad 01 5f 3d
       0.0011606149 0.18717591 0.12731853 0.054444958
000020 8c 5c 1b 3e 29 80 9b bc 9f 13 31 be 26 2f 0c 3e
       0.15172023 -0.01898201 -0.17292641 0.1368986
000030 68 0e 4d be 18 22 22 3d 6c 46 21 3e 9f 66 bc 3d
       -0.20025027 0.039583296 0.1574952 0.09199261
000040 d9 c6 c5 bd e0 08 fc 3c 26 46 a4 3d fe 06 73 be
       -0.09657068 0.03076595 0.08021192 -0.23733136
000050 70 75 9c 3e 9f 30 29 3e e8 fd 62 3e c7 9a e1 3d
       0.30558348 0.16522454 0.2216717 0.110158496
000060 56 14 07 be 5b 55 82 3e f0 ea 8c 3c a8 72 18 3e
       -0.13191351 0.25455746 0.01720187 0.14887488
000070 28 40 52 3e 3d b5 8a 3e fa e2 0b be 0d da e7 bb
       0.20532286 0.270914 -0.13660803 -0.007075554

_backbone.linear_layers.6.weight f4 [16, 32]
000000 e4 36 02 be 52 68 ff 3c c0 fc e2 be a7 8e dc 3e
       -0.12716252 0.031177673 -0.44333458 0.43077585
000010 a7 1b 53 be e5 d5 22 be ee fe dd bd b2 e9 28 bd
       -0.20616017 -0.15901907 -0.108396396 -0.041238494
000020 ea e6 37 be 8b ee a5 bd 8b a3 b2 be 82 a4 1d 3f
       -0.1795918 -0.08102139 -0.34890398 0.61579144
000030 a6 2c 74 3d 13 1b 34 3e fc d5 de 3e 01 93 16 3d
       0.059612893 0.17588453 0.43522632 0.036761288
000040 3d f9 67 be 97 d0 a5 3e 5d 6a 2e 3e f9 a5 10 bf
       -0.2265367 0.32385704 0.17032762 -0.56503254
000050 67 04 15 3e 0f 98 b9 3e 1e 41 ae 3e 85 f7 80 be
       0.1455246 0.36248824 0.34034055 -0.25188842
000060 9b 41 67 bc 8e ca ed 3e ee 87 77 be e1 82 2c be
       -0.014114763 0.464436 -0.24172947 -0.16846801
000070 76 ba 1b be ed b9 a1 3d d6 31 36 be eb 1c b9 be
       -0.15207848 0.07896791 -0.17792448 -0.36154875
000080 d5 11 a1 3e a7 da c6 3e eb 1d 3f 3e a8 48 80 3e
       0.31458917 0.38838693 0.18663757 0.25055432
000090 b7 13 4f be 10 b9 bb bd 3b ff b2 3e ee d2 ac 3e
       -0.20222364 -0.09166157 0.3496035 0.33754677
0000a0 57 c4 47 3e d3 fd a2 be 29 2e b0 bd 5b 64 14 3c
       0.19508491 -0.31834278 -0.08602554 0.00905713
0000b0 57 13 d3 bd 8a a4 06 bf e2 1f 16 3f d0 79 8e 3e
       -0.10306423 -0.52594817 0.586424 0.2782731
0000c0 d8 41 b0 be 9e 63 fc bd 85 ec 1f be 4b e4 55 3a
       -0.34425235 -0.12323688 -0.15617569 0.00081593235
0000d0 90 2d ad 3d b1 28 bb be de 68 d6 3d 3b 7e 9c 3d
       0.08455956 -0.36554483 0.104692206 0.07641264
0000e0 00 47 ab 3e ef a2 99 bc 22 42 92 3c 45 2e ae 3e
       0.33452606 -0.01875445 0.0178538 0.34019676
0000f0 42 21 1c 3e ff 3d aa 3e b1 a3 2c be 76 35 8f 3c
       0.15247062 0.33250424 -0.16859318 0.017481547
000100 f1 ba 9f be e6 06 5a be 44 f9 41 3d 34 21 2f 3e
       -0.31197312 -0.21291694 0.04735686 0.1710251
000110 e8 f4 4d 3e 94 a9 9b 3e 5a e6 fc 3e 43 cf fc 3e
       0.20112956 0.30402815 0.49394494 0.49376878
000120 1b 16 f8 bd 8a 29 3d 3e 08 7e 41 3c 6a 2e 6e 3e
       -0.12113591 0.18472877 0.011809833 0.23259893
000130 8e f2 6c 3c af a9 45 3e 33 d8 c3 3e 2f f6 95 3e
       0.014462126 0.1930301 0.38250884 0.29289386
000140 be 30 fc be 01 69 4c 3e e4 1b 86 3d 8d 0c 3c 3e
       -0.49255937 0.19961931 0.065482885 0.18364163
000150 b2 11 85 3d fc 4c 41 3d 91 83 68 3e 89 05 bb bc
       0.06497516 0.04719256 0.22706439 -0.022829788
000160 59 65 9d 3d 95 07 3d 3d 4d 81 82 3e 81 93 76 be
       0.07685346 0.04614981 0.25489274 -0.24079706
000170 bc 38 00 3d 89 bb e2 3e 0a 86 cd 3e 42 1b 06 3c
       0.031304106 0.44283703 0.40141326 0.00818521
000180 17 1b 6a be fa fd d6 bd 96 e8 7a bd 32 57 9b 3d
       -0.22861896 -0.10497661 -0.061256967 0.075849906
000190 b1 a5 5d be 08 2a 49 bc 75 92 37 be 93 1f 7a 3c
       -0.21645238 -0.012278087 -0.17926963 0.015266317
0001a0 80 21 4e 3e 70 f8 e2 bd 09 4f 1c 3f e3 3a 91 be
       0.20129967 -0.11082542 0.610581 -0.2836524
0001b0 02 15 0a be c0 7f 04 bf 18 16 68 bd 90 a9 c8 3d
       -0.13484576 -0.5175743 -0.056661695 0.097979665
0001c0 92 2c af be a5 bc ee bd 24 77 85 bc ff 8d 72 be
       -0.34213692 -0.11657075 -0.016292162 -0.2368698
0001d0 aa 6b c8 3d 18 ad 55 3e b3 0d 25 be dc 6a 23 3d
       0.0978616 0.20866811 -0.16118507 0.03989683
0001e0 3c 3f 79 be 25 ab 0d be 09 b6 6a 3e 5a 44 bf bd
       -0.24340528 -0.13834818 0.22921003 -0.09339209
0001f0 df c3 1c bd d6 e6 dd be 7f bc 06 bf e0 5f 56 3e
       -0.038272735 -0.43340176 -0.5263137 0.20935011
000200 0a 22 b3 bc 70 7e 01 be 71 28 b2 3c 0b 9a bf 3e
       -0.021866817 -0.12645888 0.0217478 0.37422213
000210 f9 91 2e be 38 48 58 3e 93 f1 72 bd 9b d2 88 bd
       -0.17047872 0.211213 -0.059312414 -0.06680795
000220 2a b3 67 3e 8a c4 89 be c4 91 98 be 52 ce a2 be
       0.2262694 -0.2690776 -0.2979871 -0.31798035
000230 38 79 e2 3c 3a 1e 7c 3e 92 b4 42 3e f5 fa 90 3d
       0.027645692 0.24620906 0.19014195 0.07079116
000240 2a 9f 7c bd 95 7b a0 3d 06 6e a4 bd b8 30 14 bd
       -0.06167523 0.078360714 -0.08028798 -0.036179274
000250 e5 e2 80 be 02 27 4a be 9e 5c 54 be 1f 43 b6 3e
       -0.25173107 -0.19741443 -0.20738456 0.35598084
000260 45 ac 17 3e 8a 63 35 be 3a fc 5b bd 6c 4e 7e be
       0.1481181 -0.17713752 -0.05370734 -0.24834603
000270 80 1f 62 3d 35 99 53 be 2a ce 0e bf f2 a3 8f 3e
       0.055205822 -0.20663913 -0.5578333 0.28054768
000280 43 0f d9 bd e9 60 af 3e c1 a3 5c be 64 3a 0e 3e
       -0.10598614 0.34253624 -0.21546842 0.13889462
000290 a1 c3 76 3e 08 04 b4 3d 73 0b 29 3e 77 65 8f be
       0.24098064 0.087898314 0.16508274 -0.280071
0002a0 12 38 7b 3d fa 92 3a 3e 65 48 1f bf c4 03 22 bc
       0.06133277 0.1822013 -0.6221984 -0.009888593
0002b0 75 98 b1 be 8d 1d a0 3c 30 3c 97 3e 36 b3 3f 3e
       -0.34686628 0.01954534 0.29538107 0.18720707
0002c0 ad 46 b1 be 96 75 87 3e 21 85 55 3e 45 8d 1f bf
       -0.34624234 0.26456898 0.20851566 -0.62324935
0002d0 d8 aa 17 3e 76 34 ab 3e 34 e8 80 3e b3 07 ef bd
       0.14811265 0.33438462 0.25177157 -0.116713904
0002e0 9c 42 82 be 4f 68 d1 bc 2f 6d d7 3e 37 00 f3 bd
       -0.25441444 -0.025562434 0.42075488 -0.11865275
0002f0 b8 dc 29 3e c4 46 e8 3e b6 b3 39 3e c3 cc cd be
       0.16588104 0.4536649 0.1813496 -0.40195283
000300 46 18 f9 bc 64 ea 6f be 46 4b d8 ba 72 c4 94 bd
       -0.030407082 -0.23429257 -0.0016501925 -0.072640315
000310 96 5e 35 3d 81 22 41 3f ac ce 39 be ce aa ee 3d
       0.044279657 0.75443274 -0.18145245 0.11653672
000320 dc df 88 3e 17 97 72 3a 1b fc d3 be 09 0e ad 3e
       0.2673329 0.00092540815 -0.4140328 0.3379977
000330 60 0a 37 be dd ae af 3c bf 22 e0 be 9b 75 43 be
       -0.17875051 0.021445686 -0.4377651 -0.19087832
000340 f7 76 05 be 8c 33 a9 3e 20 12 01 3e 93 55 08 be
       -0.13033663 0.3304714 0.1260457 -0.13313894
000350 9a 5f 24 3e c5 3c 8f 3d 91 d4 98 3e bd 4b f7 3d
       0.16052094 0.06994013 0.29849675 0.12074993
000360 8d d8 e7 3d 43 28 de 3e c8 15 62 3d da 25 2a be
       0.11320601 0.43390092 0.055196553 -0.16616002
000370 0e e5 5e 3e 39 3e 27 3d b7 73 44 be 95 5a 9a be
       0.21767065 0.040830825 -0.19184767 -0.30147234
000380 a3 fe 9c 3e d5 bb 18 3e aa 48 98 bc ba 3c ac bd
       0.30663022 0.14915402 -0.018589336 -0.0841002
000390 53 69 8d be ce a3 ab 3e f3 4e 79 3e f5 a2 6d 3e
       -0.27619419 0.3352341 0.24346523 0.23206694
0003a0 64 24 2e 3d a5 5c a8 be c0 56 6a be 71 90 db 3d
       0.042515174 -0.32883182 -0.22884655 0.107209094
0003b0 62 9c 85 be 0c 8d 74 bd 31 e3 04 3f a4 35 51 3d
       -0.26095873 -0.059704825 0.51909167 0.051076546
0003c0 4f a9 50 3d d1 fd 1e be d3 eb c9 3e 17 1e 4a bd
       0.050942715 -0.15526511 0.39437732 -0.049345102
0003d0 4f d5 d3 3c 07 00 03 3f 56 2d 26 3e 13 f9 f6 3e
       0.02585855 0.51171917 0.16228232 0.48236904
0003e0 f7 fb fe bd 1f 85 12 be e9 39 be be cd 44 ea 3d
       -0.12450402 -0.14308594 -0.37153557 0.11438904
0003f0 4c 39 d2 3e b4 ef 2d 3e dd 56 5d be 8f c1 c9 3e
       0.4105934 0.1698597 -0.21615167 0.39405486

_backbone.linear_layers.6.bias f4 [16]
000000 1f d4 23 3c ea bd 29 3e 43 82 39 3e 08 78 4f be
       0.009999304 0.16576353 0.18116097 -0.20260632
000010 e4 2e 30 be 43 76 cb bb 1b f7 31 3d 4a fe 22 3d
       -0.17205387 -0.0062091663 0.04344855 0.03979329
000020 73 e0 a1 3e 76 62 bb 3c cf e2 14 be 10 eb 9c 3e
       0.31616554 0.022874098 -0.14539646 0.30648088
000030 2f 77 a3 3e f3 d7 f8 bd db eb ec bd 12 de f6 3d
       0.31926867 -0.12150564 -0.11568423 0.12054075

_embedding_layer.normalizing_batch_norm.weight f4 [3]
000000 61 b9 86 3f 9c 9b 81 3f 52 d6 75 3f
       1.0525323 1.0125613 0.9603015

_embedding_layer.normalizing_batch_norm.bias f4 [3]
000000 9c 90 2f 3d df f9 24 3e fb da 42 3e
       0.04286252 0.16110943 0.19028847

_embedding_layer.normalizing_batch_norm.running_mean f4 [3]
000000 13 a9 0e 3b 6a 7f f9 bc 5f 91 d7 bc
       0.0021768257 -0.030456264 -0.026314436

_embedding_layer.normalizing_batch_norm.running_var f4 [3]
000000 e0 e2 78 3f cd f8 74 3f 23 5d 82 3f
       0.97221184 0.9569214 1.0184673

head.layers.0.weight f4 [1, 16]
000000 b8 fa c3 3e e0 17 d7 3e df ca 25 3e 22 14 aa bd
       0.3827722 0.42010403 0.1619067 -0.08304621
000010 91 32 cc be 95 14 b1 3e 49 c0 d2 3e 7a a5 96 3e
       -0.3988233 0.34586015 0.41162327 0.29423124
000020 51 b0 1a 3e a3 35 f7 be b0 4f 0b be 17 1f 39 3e
       0.15106322 -0.4828311 -0.13604617 0.18078266
000030 70 cb 80 3e 18 38 d0 bc 10 d7 33 be 49 14 43 3e
       0.2515521 -0.025417373 -0.17562509 0.19050707

exp_avg f4 [64, 3]
000000 04 5e f0 bb 6a 75 33 3e b3 20 2c bc 5b df 95 3c
       -0.0073354263 0.17525259 -0.010505843 0.01829498
000010 b4 1c f2 bc 59 c6 97 3d cd 8d 1e 3d 9d 55 db 3c
       -0.029554702 0.07410879 0.03870945 0.026774222
000020 1a 9c 05 bd 6f 06 69 bc 17 bf a6 bb 01 1c e6 bb
       -0.032619573 -0.014222725 -0.0050886977 -0.0070223813
000030 77 20 89 bd 46 a7 04 3e 68 fd 3e bd 7f b8 0b bc
       -0.06695645 0.12954435 -0.046628386 -0.008527874
000040 7d 76 ea 3e 44 6c 81 bd 07 12 8d 3d e2 aa 85 3e
       0.45793524 -0.06319478 0.06888204 0.26106936
000050 4d f2 5b 3d 08 4d 56 bb c5 53 8e 3c f3 11 a9 3b
       0.053697873 -0.0032699723 0.017373929 0.0051596104
000060 1e 5e 88 3d a6 61 6c 3d af ff d1 3d 22 cf 48 3d
       0.066585764 0.057710312 0.10253846 0.049025662
000070 37 a1 07 3e dd f5 18 3d ad 8c d2 3c 08 6f b3 3c
       0.13245092 0.03734385 0.025701845 0.02190353
000080 b9 4e 9e 3c 38 15 35 be 9c 6e 91 bd 15 ab 32 bc
       0.019324647 -0.17683876 -0.07101175 -0.010905047
000090 8c c2 7d 3d e0 b0 8c 3d 9a a2 ec 3d d5 74 88 3e
       0.061953112 0.06869674 0.11554451 0.26651636
0000a0 ca e7 aa 3e 62 aa b2 3e 19 05 57 3e cf 28 80 3e
       0.33379966 0.34895617 0.20998038 0.25031134
0000b0 44 36 5f 3e 71 0b 16 bb f2 e2 88 3c cf 67 f0 bc
       0.21798044 -0.0022895003 0.016709778 -0.029346375
0000c0 19 3d d2 bc e8 f5 2b be f9 64 cd bb 02 9f c3 3d
       -0.0256639 -0.16793025 -0.0062681404 0.09551813
0000d0 35 b8 78 3d 36 95 f0 3d dc f3 b2 3d 23 05 2b 3d
       0.06072255 0.1174721 0.08737919 0.041752946
0000e0 c5 42 ac 3e b2 93 8a 3e a2 e5 ab 3e 52 bb 7f 3e
       0.3364469 0.27065808 0.33573633 0.24973801
0000f0 e6 48 5b 3e 25 4b 89 3e d5 09 78 3e 92 bf 37 3c
       0.21414527 0.26815143 0.242225 0.0112151075
000100 54 09 13 3d c0 d5 06 bd b5 a5 8f 3c 06 c4 63 3b
       0.035897568 -0.03291869 0.01753507 0.003475429
000110 fe b1 07 3d dc b3 be 3c 11 61 4b 3e 51 6c 38 3d
       0.03312873 0.023279123 0.19861247 0.045025174
000120 34 41 39 bd c9 bc 0e bc 41 46 bc bc 90 61 fa 3d
       -0.0452282 -0.008712002 -0.022982718 0.1222564
000130 76 b4 5d 3e 6f b8 bf 3d 00 b0 9b 3e db 3c 29 3f
       0.21650872 0.0936135 0.30407715 0.66108483
000140 b5 36 d1 3e 6f a6 3b 3c b0 47 9f bd cc 30 80 3b
       0.4086205 0.011453255 -0.07777345 0.003912067
000150 18 6b 07 3d f2 6d 57 3c 9e ef 06 3d 9e 91 9e 3d
       0.033061117 0.013148772 0.03294336 0.07742618
000160 20 3b 8b 3d 6e b5 d2 3d 74 2d 20 3d 49 e8 01 3d
       0.067983866 0.10288511 0.039105847 0.031715665
000170 d5 4e a1 3c 1a e1 04 bd 6d 53 ed 3c ec 62 ee bd
       0.01969091 -0.032441236 0.028970445 -0.116399616
000180 5a 9f b5 3d a8 d9 e9 3d aa c5 d1 3d 11 69 78 3c
       0.088682845 0.11418468 0.102427796 0.0151617685
000190 92 33 1b 3d 41 6e 50 3b 77 15 64 3d 80 c3 f8 3d
       0.03789098 0.0031803998 0.055684533 0.12146664
0001a0 df 92 ff 3c de c5 94 3d c9 ad 4d bc a2 44 23 3d
       0.031197963 0.07264303 -0.012553641 0.039860375
0001b0 86 55 c8 bd 51 4c 33 3d 4c 01 b6 bd f3 e9 8c 3c
       -0.09781937 0.043773953 -0.08886966 0.0172014
0001c0 2b 51 72 3e 2b bc d7 3c f9 56 63 3b 54 3a 1f 3f
       0.23663776 0.026334843 0.003468929 0.62198377
0001d0 d3 81 33 3e 57 fd 5f be 14 2c 9a 3e cf 14 8b 3d
       0.17529993 -0.21873985 0.30111754 0.06791078
0001e0 7e 63 f5 3d 3c ef 73 3e 50 ad 2f 3d 82 9c 7c be
       0.11981867 0.2382173 0.042889893 -0.24669078
0001f0 d4 48 1f 3e 86 11 92 3c 7c 24 72 3d 1a d3 80 3d
       0.15555125 0.017830621 0.059116825 0.062902644
000200 d4 61 a0 3d 65 ae 53 bd 81 e7 fe bc 13 6f 4f 3b
       0.07831159 -0.051679987 -0.031116249 0.0031651899
000210 d8 40 68 3e 19 f5 9b 3e 23 0c 84 3e c1 ec 70 3e
       0.22680986 0.30460432 0.2579051 0.23527814
000220 43 db 06 bd a7 36 0f 3e 02 e8 c7 bd 05 d1 4a be
       -0.032923948 0.13985692 -0.09761049 -0.19806297
000230 7e bd a5 bc dd d5 11 bd 10 68 41 3c 61 2a 85 bc
       -0.020231958 -0.035604347 0.011804596 -0.01625556
000240 c6 99 b0 3d fa 14 40 3e 02 c4 5a 3d 07 f4 c2 3d
       0.0862308 0.18758002 0.053409584 0.09519201
000250 f3 03 1f 3f 32 9b 8a 3e 90 3d 62 3e 1e b8 01 3f
       0.621154 0.2707153 0.22093797 0.50671566
000260 29 ab c3 3e 0a 81 9b bc 65 ff eb bc 1b 6a f6 bc
       0.38216522 -0.018982429 -0.028808305 -0.030079892
000270 ae c9 03 bd 23 07 1a be 67 57 93 bc cd f3 8d 3d
       -0.03217476 -0.15041785 -0.017986013 0.06931267
000280 74 ed d8 bc e2 e4 20 3d 75 48 27 3b d8 5c f4 3b
       -0.026480414 0.03928078 0.0025525365 0.007457357
000290 a1 55 36 3b c7 32 8e 3d b9 c6 a6 3e 7b eb 1c 3d
       0.0027822035 0.06943279 0.32573488 0.03831051
0002a0 23 92 aa 3d 0d af 5d 39 c0 a4 81 3e 57 df d9 bc
       0.083286546 0.00021141414 0.25321007 -0.026595755
0002b0 a8 0b 7a b9 78 c6 31 bd 0d b2 a7 3e 6f 74 cd 3e
       -0.000238462 -0.043402165 0.3275303 0.40127894
0002c0 42 66 bf 3e d6 d0 36 3c cb b2 ea 3c d0 df e4 3b
       0.37382704 0.011158189 0.028649708 0.0069846883
0002d0 cb 35 b0 bd cc cc 7a bc 02 c2 c7 3c db a0 26 3d
       -0.0860401 -0.015307616 0.024384502 0.040680747
0002e0 7c a5 6d 3d c4 3d 15 3d a4 5d 36 3d ac 80 2e 3e
       0.058019146 0.036435857 0.044522896 0.17041272
0002f0 4a 27 d2 ba 02 95 4e 3d 3e de 92 bc b5 93 d4 3c
       -0.0016033438 0.050435074 -0.017928239 0.025949338

exp_avg_sq f4 [64, 3]
000000 f7 bb 84 3e 74 82 ed 3e 39 1d 3c 3e a9 3b b1 3b
       0.25924656 0.4638859 0.18370523 0.0054087234
000010 b3 7a 20 3e d1 66 ed 3d 80 05 8e 3c 73 2c e5 3c
       0.15671806 0.11591876 0.017336607 0.027975297
000020 71 fa 96 3c c4 9c d2 3b a3 87 5d 3b 72 3c aa 3b
       0.018429967 0.0064273793 0.003380277 0.005195194
000030 78 44 3e 3d 20 36 e0 3c c7 c7 33 3d 8b aa 2c 3f
       0.046452016 0.027369559 0.043891694 0.6744773
000040 5b 4e aa 3f bc 5d df 3e 12 18 8c 3e 64 7a 00 3f
       1.3305162 0.436262 0.27362114 0.50186753
000050 49 89 43 3e ec 97 04 3d 5a a2 0b 3c 2f 0a 51 3d
       0.19095339 0.032371446 0.008522594 0.051035102
000060 58 bf 73 3e 19 d8 9f 3e e6 41 4a 3e 69 ce 28 3e
       0.2380346 0.31219557 0.19751701 0.16484989
000070 66 7e a1 3e b7 7a f0 3d 3e 6b 16 3d 6b 3c 73 3d
       0.31541747 0.11742156 0.036723368 0.05938379
000080 27 1f ef 3c 88 e8 eb 3d 79 a5 4b 3d f9 95 e0 3d
       0.02918966 0.11518961 0.049718354 0.10966105
000090 d9 91 27 3e 42 f1 88 3e f6 47 11 3e ab 4d ab 3f
       0.1636423 0.26746565 0.14187607 1.3383077
0000a0 3c d7 e7 3f 02 82 9b 3f 9c 92 22 3f 14 1c 6e 3f
       1.8112559 1.214905 0.6350496 0.93011594
0000b0 ff ee f7 3e 80 f2 cc 3c 7b 56 56 3c 34 09 d4 3d
       0.48424527 0.025017977 0.013082142 0.10353318
0000c0 ac 5c 12 3e 8c 29 b2 3e c1 7e e6 3d 7e c2 2f 3e
       0.14293164 0.34797323 0.11254645 0.17164037
0000d0 37 77 62 3e bd 6b 39 3e 9f 97 99 3f 33 01 fa 3f
       0.2211579 0.18107505 1.1999396 1.9531616
0000e0 65 fe 9c 3f d7 0c 45 3f c5 c0 85 3f 2a 8d 2a 3f
       1.2265135 0.7697272 1.0449454 0.6662165
0000f0 4a 7e 3a 3f 0e ab 83 3f 35 16 21 3f ca 00 80 3b
       0.7284895 1.0286577 0.6292451 0.003906344
000100 f5 51 56 3c 39 8b 82 3c 93 f7 1a 3e 5d 13 44 3e
       0.0130810635 0.015935527 0.15133505 0.19148012
000110 21 8f 0e 3e ab 9d c9 3e a6 2f 49 3f 10 eb 92 3e
       0.13921787 0.39378104 0.7858833 0.28694963
000120 d8 6a 16 3c 77 dd d5 3b e8 88 94 3c 79 5e 65 3f
       0.009180747 0.006526645 0.018131688 0.8959728
000130 7a eb ca 3f 97 ab 16 3f 79 4e 1c 40 df 8d 96 40
       1.5853112 0.58855575 2.4422896 4.7048182
000140 9c 65 01 40 4d 04 69 3e 20 b2 f8 3e 54 7e 3d 3e
       2.0218267 0.22755547 0.485734 0.18505222
000150 4a ba 81 3c 36 ea 8f 3b 37 d8 3a 3c 27 62 39 3e
       0.0158359 0.004391934 0.011404089 0.18103848
000160 77 36 77 3e ef 03 42 3e c3 86 2e 3d de fb 57 3c
       0.2414187 0.18946813 0.042608988 0.013182608
000170 69 b3 fc 3c cc 64 2a 3b 28 0c ae 3c f2 61 99 3c
       0.030847268 0.002600002 0.02124603 0.018723462
000180 cd b9 c9 3e 48 bd 27 3f 81 a7 92 3e 92 ba d9 3d
       0.39399567 0.65523195 0.2864342 0.106312886
000190 2a 38 14 3e e7 98 b3 3d 4d 42 5c 3e a0 12 bf 3e
       0.1447455 0.08769398 0.21509667 0.37318897
0001a0 a0 5a 0f 3e 59 2a 84 3d c9 2a c9 3b d5 1c 19 3d
       0.13999414 0.0645339 0.0061391336 0.037381012
0001b0 73 d1 82 3c e3 31 3b 3c b7 27 55 3c 40 2d 26 3f
       0.015969014 0.011425468 0.013009957 0.64912796
0001c0 e7 8c b0 3f d8 40 f4 3e 37 79 f7 3f 15 ff 71 40
       1.3793 0.47705722 1.9333867 3.781194
0001d0 98 bc d2 3f a1 9f 0a 40 06 71 5a 40 04 81 02 40
       1.6463804 2.165993 3.4131484 2.0391245
0001e0 59 86 04 3f b5 92 6d 3f b5 11 c7 3e a1 7e 22 3f
       0.517675 0.9280198 0.38880697 0.6347447
0001f0 a4 5f 7d 3f 9d 6f 09 3f a3 86 e0 3d 2c f0 28 3e
       0.9897406 0.53685933 0.1096318 0.16497868
000200 bc a0 b9 3d b7 85 c3 3c 45 a0 42 3e 41 dd d1 3d
       0.09063861 0.023867471 0.1900645 0.10247279
000210 33 b0 8e 3f 0d 6f c0 3f 55 8e 84 3f a6 ef aa 3e
       1.1147522 1.503389 1.0355936 0.33385962
000220 a2 ff d0 3c 4a c9 35 3e d4 c5 06 3e b0 86 38 3e
       0.02551252 0.17752567 0.13161403 0.18020129
000230 99 ad 2e 3d d8 d2 9a 3c 38 6b f9 3b ec d6 a7 3c
       0.042646024 0.018899366 0.0076116584 0.020488225
000240 ed c5 64 3f a5 1b c7 3f 1b ee 16 3f 8a 59 ab 3f
       0.8936451 1.5555311 0.5895707 1.33867
000250 ed 37 1b 40 39 d9 98 3f de ea c1 3f f2 a8 0d 40
       2.4252884 1.1941291 1.5149801 2.2134366
000260 a2 17 c6 3f 81 b5 03 3f 43 2f 2d 3f fe ad fe 3e
       1.5475962 0.5144883 0.6765024 0.4974212
000270 a7 d2 82 3e a2 ba b8 3e 74 f2 30 3e 57 03 08 3d
       0.2555134 0.3607989 0.17279989 0.03320631
000280 62 6f 69 3b 2b de 9b 3c 9f 25 36 3c 8e e6 5f 3d
       0.0035619368 0.019026836 0.011117368 0.054663233
000290 fa 91 96 3d 87 cd 38 3f 1c dc b0 3f c3 56 fa 3e
       0.073520616 0.7218861 1.3817172 0.4889432
0002a0 ab c7 18 3f 27 c6 56 3f 03 26 14 3f 8c e3 16 3d
       0.5967967 0.83896106 0.578705 0.0368381
0002b0 4b ed 68 3d 68 b4 14 3d f1 38 ec 3f b6 57 2e 40
       0.056866925 0.03630486 1.8454877 2.7241035
0002c0 ec 6e b4 3f ce 2b 21 3e 4b 13 ac 3e 8c 54 f3 3d
       1.4096351 0.15739366 0.3360847 0.118813604
0002d0 a8 dd 6f 3d cd 09 f8 3c a0 01 02 3e 97 05 29 3d
       0.058560997 0.03027811 0.12695932 0.041265097
0002e0 6c 7b a4 3d 03 72 00 3d 84 41 4e 3f 7d 26 b4 3f
       0.08031353 0.03135873 0.8056872 1.4074246
0002f0 16 5e 08 3f c7 96 44 3d 14 00 0b 3c b4 fa 1b 3d
       0.53268564 0.047995355 0.008483905 0.038080886

exp_avg f4 [64]
000000 2e 58 2d 3d 09 f6 81 3d 7c 5b 47 bd 3a 51 e8 3b
       0.042320423 0.063457556 -0.04867123 0.007089761
000010 32 d8 f6 3c 1d 24 2d 3e 13 d4 24 3e ec 88 74 3c
       0.030132387 0.16908307 0.16096525 0.014925223
000020 52 24 d4 3d a4 d3 7c 3d 0b fd 5a 3c b8 a9 1f 3d
       0.1035849 0.061725274 0.013365994 0.038980216
000030 97 df 1d 3e f8 4a 96 3e 4a b8 5a 3e b8 1c 71 bc
       0.15417324 0.29354072 0.21359363 -0.01471632
000040 31 12 82 bd 32 0b d9 3d 67 46 a0 3e 0c 93 8e 3e
       -0.06351126 0.105978385 0.31303713 0.27846563
000050 4a b7 66 3e 70 f6 1f bd 02 3c 39 3d b4 b1 fe 3d
       0.22530857 -0.03905338 0.045223244 0.12436238
000060 57 62 dc 3c a0 bd d0 3d af e7 dc 3e 2f 0d de bc
       0.02690236 0.10192418 0.4314551 -0.027105896
000070 22 d5 66 3b 90 b3 ba 3d 65 9c 96 3c 11 3f b0 bd
       0.0035222252 0.0911628 0.018385122 -0.08605779
000080 34 98 15 3e 67 a4 9b 3c 4f 30 46 3d 31 45 b0 3b
       0.14608842 0.018999292 0.048385914 0.005379342
000090 72 4e a8 bd ed 5b fc 3d 94 5f db 3e 0b 25 24 3f
       -0.08218087 0.12322221 0.42846358 0.64119023
0000a0 7a f2 b6 3d b4 32 5d 3e ef d1 d7 3d 4d 9d 58 3d
       0.089329675 0.21601373 0.105380885 0.05288439
0000b0 6e 61 82 3e 26 6a ce bc 48 67 cd bd 9b 60 99 bb
       0.25464958 -0.0251971 -0.10029465 -0.0046807057
0000c0 9f 57 c2 3d 2f 43 b3 3e 67 a4 b5 3e 57 8a 9e bc
       0.09489369 0.35012195 0.35476992 -0.019353075
0000d0 c5 39 7a bd 30 30 9f bb cb 58 c9 38 af 52 ba 3d
       -0.06109025 -0.0048580393 9.600966e-05 0.09097802
0000e0 bb 8f ce 3d 15 4b 70 bc 09 41 99 3e 94 34 1d bb
       0.10086008 -0.014666338 0.2993243 -0.0023987638
0000f0 e1 20 78 3d dc 8e 1c 3d 17 d7 a2 3d 0f 53 5a 3c
       0.06057823 0.03822218 0.079511814 0.013325467

exp_avg_sq f4 [64]
000000 87 29 b1 3e cf 12 9a 3e 3b ef 5d 3d bc 14 d0 3b
       0.34601995 0.30092475 0.054183226 0.006350128
000010 b1 89 c0 3d 56 76 7f 3f c8 33 96 3e 14 2e 22 3d
       0.094012626 0.9978994 0.2933638 0.039594725
000020 01 9f 66 3e 3d f1 0e 3e 98 c9 b7 3c 15 52 7f 3e
       0.22521593 0.13959213 0.022434995 0.24933656
000030 54 73 ce 3d 0f 83 02 40 db 52 37 3f e9 5a 64 3d
       0.10080591 2.0392492 0.716108 0.05575076
000040 13 ed f7 3d 39 f2 82 3e d8 53 14 40 72 3e 5f 3f
       0.12105765 0.25575426 2.3176174 0.8720466
000050 1a 18 84 3f 62 d8 24 3d 9f 6a 1f 3e 9d b0 b0 3e
       1.0319855 0.04024542 0.15568016 0.34509745
000060 c8 35 0e 3d c1 45 3d 3f da 40 5c 40 01 25 39 3e
       0.03471926 0.7393456 3.4414582 0.18080522
000070 cf 77 f7 3c 14 6c 74 3e a5 f4 23 3d 9d ca 56 3d
       0.030208496 0.23869354 0.040028233 0.05243932
000080 b2 46 ad 3e 06 b3 87 3d c0 1f 30 3e fd c1 25 3d
       0.33843 0.06625943 0.17199612 0.040468205
000090 f1 b6 94 3d 3e d1 37 3f 46 83 42 40 66 c1 88 40
       0.07261456 0.71803653 3.0392623 4.273608
0000a0 07 f9 0b 3f 6f f9 71 3f 2c 34 a7 3d 91 d2 bc 3e
       0.5467686 0.9452123 0.08164248 0.368794
0000b0 c2 9c d2 3f 82 31 eb 3d ba c5 82 3d d2 ce a8 3c
       1.6454089 0.11484052 0.063853696 0.020606432
0000c0 c4 9f 1f 3f 3a f6 32 40 c7 6e 45 40 0a 41 15 3f
       0.6235316 2.7962785 3.0848863 0.58302367
0000d0 80 08 ff 3d b0 4d 8f 3c ea 03 10 3e a5 cc 7b 3f
       0.12452793 0.017493099 0.14063993 0.9835914
0000e0 eb 99 86 3f 0f 4c 0c 3d 21 66 14 40 06 1e 20 3e
       1.0515722 0.034252223 2.3187335 0.15636453
0000f0 f4 4c 0d 3e 1b 45 fa 3c 4a 79 1d 3f 08 87 de 3c
       0.13798887 0.03055053 0.615132 0.027163997

exp_avg f4 [32, 64]
000000 a8 6d 76 3d ef b3 6d 3c 5c 47 38 3c b1 ff 0c 3c
       0.06016317 0.014508232 0.011247482 0.008605883
000010 8c 99 fd ba 07 79 f6 3c ed f5 0a 3e 9d 9d 94 3b
       -0.0019348129 0.030087007 0.13570376 0.0045353905
000020 ae 73 09 3c 2e 89 31 3e f5 23 0a 3d 38 51 b1 3b
       0.008389397 0.17337486 0.033725698 0.0054112934
000030 7b 74 d8 3c ab 68 82 3d c5 5c 60 3d 77 34 23 3b
       0.02642273 0.0636762 0.054775972 0.0024903098
000040 71 db 6f 3c 6c 2d fb 3b 08 04 27 3d f8 b3 02 3d
       0.014639721 0.007665327 0.04077533 0.031909913
000050 e6 35 24 3e e2 e9 c6 3b a5 15 b7 3c 6d 93 76 3d
       0.16036186 0.0060703615 0.022349188 0.06019919
000060 f4 ef c9 3b 74 6e 29 3e 97 4a f2 3d b9 b4 3c 3d
       0.006162638 0.16546041 0.11830633 0.046070788
000070 75 e5 29 3a 49 8f e5 3a 1d 41 79 39 c9 d1 89 3c
       0.000648103 0.0017514016 0.00023770747 0.016823666
000080 8d f1 82 3d 0f fa 20 3b 09 06 a5 3d ae 30 f4 b9
       0.063937284 0.002456311 0.08057792 -0.00046575576
000090 a4 be 39 bb ef c0 9c 3d c5 3f 6e 3d ce 27 50 3c
       -0.002834239 0.07653987 0.058166284 0.012704803
0000a0 68 ae aa 3d d2 67 82 3c 92 44 7f 3b a8 9e 2d 3c
       0.083340466 0.015918646 0.0038950783 0.010596909
0000b0 22 f8 a3 3d 40 b1 6a b9 19 06 b2 3b b7 f2 33 bb
       0.08006312 -0.0002238201 0.005432856 -0.0027457902
0000c0 c7 9f 50 3d 86 9a be 3d c1 08 47 3d 71 f2 9a 3c
       0.050933626 0.09306817 0.048592333 0.018914433
0000d0 97 b0 10 3d 70 9e 38 ba 8e d8 c1 3c 4f f2 d7 3d
       0.03532466 -0.0007042652 0.023662832 0.105442636
0000e0 ca 12 4c 3c fa 36 3c 3d 76 ce 9b 3d 05 a8 81 3d
       0.012455652 0.045950867 0.07607739 0.06330875
0000f0 d5 ac 95 ba 7e d6 0c 3d d9 39 6c 3d 0d 88 9a ba
       -0.0011419306 0.034384243 0.057672355 -0.0011789814
000100 80 20 70 3e f9 00 8c 3d 58 28 97 3d a0 5b 87 3e
       0.23449898 0.06836123 0.07380742 0.26437092
000110 79 a5 60 3e 90 75 4a 3e b3 2c f4 3e 67 b5 31 3d
       0.21938123 0.19771409 0.47690353 0.04338589
000120 34 91 c2 3d 72 ff 0e 3f 36 c4 bc 3d e2 b9 48 3e
       0.095003515 0.5585853 0.09217112 0.19602159
000130 d0 11 f7 3c 47 2b 8a 3e ad d2 52 3e 9b 7e 2d 3d
       0.03015986 0.26986143 0.20588179 0.04235707
000140 39 70 b8 3d c7 9b ec 3d 60 c0 28 3e 0f e7 36 3e
       0.0900578 0.1155315 0.16479635 0.1786158
000150 38 87 01 3f a4 78 a5 3d 96 d1 3d 3e 8e d4 4a 3e
       0.5059695 0.08079651 0.18536982 0.19807646
000160 68 b4 51 3d 76 76 d9 3e 82 8e af 3e 6e c7 1b 3e
       0.05119744 0.4247319 0.34288412 0.15212795
000170 0f 99 45 3c 64 de ba 3d 5e 1f 02 3d c4 ce 9b 3d
       0.012060418 0.09124449 0.031768195 0.07607797
000180 23 56 71 3e 93 bd 16 3d 74 fb 29 3e 93 40 87 3d
       0.23568015 0.036801886 0.16599828 0.066041134
000190 42 c1 f3 3d 76 35 82 3e c8 22 69 3e 34 b4 24 3e
       0.119020954 0.25431412 0.22767174 0.16084367
0001a0 c0 d2 78 3e 8e ab 03 3e d7 4c 43 3d e8 99 c5 3d
       0.24299145 0.12858412 0.047680702 0.09648496
0001b0 79 53 9f 3e f4 51 d9 3c fe 1d fc 3c 4c d8 30 3e
       0.31118372 0.026528336 0.03077602 0.1727001
0001c0 3a 07 2e 3e 29 90 b9 3e 98 eb 30 3e 90 e3 ad 3d
       0.16994944 0.36242798 0.17277372 0.0849067
0001d0 5e 67 17 3e ae 89 5a 3d 45 52 cf 3d 41 a8 ae 3e
       0.14785525 0.053353958 0.101231135 0.34112743
0001e0 02 d2 4b 3e ca f9 1f 3e 6b 27 85 3e aa 96 55 3e
       0.1990433 0.1562263 0.26006636 0.20858255
0001f0 bd cb b4 3d a7 8b 21 3e 7c dd 19 3e 90 79 5b 3d
       0.088279225 0.1577593 0.15025896 0.053582728
000200 be f6 44 bc 07 00 0d b9 40 8b e3 3b 5b 12 59 3b
       -0.012021719 -0.00013446818 0.00694409 0.0033122513
000210 2d dc 2a 3c d7 88 a1 ba 10 f5 77 ba 45 1b 76 3c
       0.010428471 -0.0012324107 -0.00094588194 0.01502115
000220 28 a5 0e bb 62 08 81 3c 20 bf a6 ba 70 42 d6 3c
       -0.0021765921 0.015751068 -0.0012721755 0.026154727
000230 54 8f 6d ba 61 17 53 bb 3f 84 0e bb 93 3b 8c 3c
       -0.000906219 -0.003220998 -0.0021746305 0.017118251
000240 12 37 68 bb ca bd ce ba 57 1e 28 bb dd 58 06 bb
       -0.0035433215 -0.0015773114 -0.002565285 -0.0020499744
000250 e0 aa 4e ba 55 c1 dc 3a 80 0a 87 ba fd 14 4f 3b
       -0.0007883739 0.0016842285 -0.0010302812 0.0031598203
000260 05 00 f7 3b fe b0 ea 3a c2 3a 7c bb 56 bf b9 bb
       0.007537844 0.0017905531 -0.003848717 -0.005668561
000270 73 6c 27 3b bd be 4d bb d5 cb 93 3c 52 e5 f1 b9
       0.0025546819 -0.0031394206 0.01804153 -0.0004613796
000280 9f 02 01 ba ce fc 53 3b bf 63 a4 39 7c 04 57 bb
       -0.000492135 0.0032346728 0.00031354834 -0.003280907
000290 da e6 c4 3c a7 9d aa ba 89 91 9a 3a 28 08 ff 3b
       0.02403586 -0.0013016955 0.001179264 0.0077829547
0002a0 ef 24 5d bb 79 4e 59 3b d9 e0 06 bb 09 d4 b5 3b
       -0.0033743938 0.0033158346 -0.0020580797 0.005548958
0002b0 cd f5 26 b9 14 51 17 3b 91 5a 7a 3a af d7 44 3c
       -0.00015922562 0.0023089098 0.00095502386 0.012014314
0002c0 6a fb 2b bb a3 69 e3 ba 89 4a 0e bb ae d8 4f ba
       -0.0026242384 -0.0017350208 -0.0021711907 -0.0007928711
0002d0 fd 49 01 bc 13 d2 6d 3b 38 4c 00 bb 2e 52 2a bc
       -0.007891175 0.0036288544 -0.001957668 -0.01039557
0002e0 e7 f1 a0 bb 3d 29 9a 39 55 d0 fd ba 08 e0 86 bb
       -0.0049116495 0.00029403894 -0.0019364456 -0.004116062
0002f0 dc e2 a4 3c 87 9b 07 bb b7 59 66 ba 31 aa 6a 3c
       0.020127706 -0.0020692067 -0.0008787172 0.014322803
000300 10 ec f1 3d 8e 38 04 3d 82 e7 ab 3c f7 4b c5 3d
       0.118126035 0.032280497 0.020984415 0.0963363
000310 5e e5 b0 3d 31 35 aa 3d d0 43 90 3e 16 79 bb ba
       0.08637498 0.08310927 0.28176737 -0.0014303054
000320 8a d6 21 3d a6 d3 92 3e a9 d6 40 3d ed de 40 3d
       0.03951124 0.286771 0.047079716 0.0470876
000330 80 0f ca 3c e1 76 fe 3d 5a 1e ca 3d 26 82 20 bb
       0.024665594 0.12425018 0.0986907 -0.0024491637
000340 22 8d 40 3d 08 15 36 3d c7 ec a4 3d 6d 97 9c 3d
       0.047009595 0.04445365 0.08052974 0.0764607
000350 98 4b 8c 3e 7a c8 8a 3c d7 49 a9 3d 17 e4 f6 3d
       0.27401423 0.016941298 0.08266037 0.120552234
000360 44 ef 3f 3c c7 2e 77 3e 55 ec 4c 3e b9 e5 bf 3d
       0.01171476 0.24138938 0.20012029 0.09369988
000370 ff 78 ab ba 07 10 04 3d 68 c5 5c ba a2 9a 0f 3d
       -0.0013082324 0.032241847 -0.000842175 0.03505958
000380 8e 16 00 3e 4c 87 58 3c 0a 8c ae 3d a2 e0 6f 3c
       0.12508604 0.013215851 0.08522804 0.014640959
000390 c9 dd 8f 3b 92 3e 06 3e f5 ca f3 3d dc 83 73 3d
       0.0043904525 0.13109806 0.11903945 0.059451923
0003a0 65 dd f9 3d f0 57 55 3d 82 37 bf 3c 37 bf 29 3d
       0.12200431 0.052085817 0.023341898 0.041442122
0003b0 50 c2 2c 3e 4c 9c 12 3c 2b 68 20 3c 5f d1 46 3d
       0.16871 0.008948397 0.009790461 0.048539516
0003c0 c8 4a c6 3d 0b 41 3a 3e e8 3c c7 3d 81 39 2e 3d
       0.09682232 0.18188874 0.09728414 0.04253531
0003d0 8f c5 a0 3d 1b 3c 6c 3c 7d 7b 2c 3d 3a 84 37 3e
       0.07850181 0.014418627 0.042109955 0.17921534
0003e0 0d 70 a9 3d 50 4c a6 3d 99 19 03 3e 9a 62 ed 3d
       0.08273325 0.08120024 0.12802733 0.115910724
0003f0 52 ba 03 38 bd 0e 95 3d 2a 67 c7 3d 83 05 b2 3b
       3.1406358e-05 0.07278202 0.09736474 0.005432786
