Classification/save_models/best_mlp_model.pth (torch, 5003 bytes, 7 tensors)

fc1.weight f4 [20, 21]
00000000: d708 d7bd 3aa1 aebe 1ad6 95be cf7f 843d
00000010: 09ae e0bd 2642 813e 2d48 da3e cc30 06bd
00000020: e9ec 69be fe2a 7fbe 8ca6 93be 6bc2 45be
00000030: 507a a3bd 6397 863e be2d ac3e 8f33 fdbd
00000040: 86ee ebbe be1a 9f3d 7b40 0a3f 631d d0be
00000050: 8382 6bbc 99cf cfbc e164 893c 5c8b af3e
00000060: a4bc cfbd 8bd4 6e3e 6c31 a43e ef57 debe
00000070: 7f19 863e 3040 ac3d 0d66 283e 56b6 76bd
00000080: 1a3c 993e 80df 5dbe a940 e93c d51e 4fbe
00000090: f1dc 343d bd78 923d 304c 193e 1f75 b2be
000000a0: 0660 fcbd 1abe 113f 280b e9be 38c8 1c3e
000000b0: 3fd3 bcbe 3243 aebe 0999 1bbe c77e c4bd
000000c0: 4578 363f 38b3 c93e 1c7d 21bd 468e 113e
000000d0: 22ad 04be 598c 91be 3bf0 fe3e f65d 03be
000000e0: 45e1 e2be f54a e33b 35fb 9e3e c839 3dbe
000000f0: 5587 62be 367d 643e ce6a 54be 6594 01be
00000100: 60f8 43be 7bbb 8e3e bf2d 95be 60db 33be
00000110: e4b8 9a3e 36bf 0e3e bda3 883d 2ae4 173f
00000120: e627 e3be 91b1 d2be 56f3 8dbe 264e 0b3f
00000130: 3dd4 b53e 5506 ac3e 6116 2bbe f867 debe
00000140: df13 5cbe 4f55 a73e 075f 3bbd bc7b c2be
00000150: bd38 59be 80eb 7cbe 968f 233e 5985 1c3c
00000160: ffab 30be 1e9e 663e a21a 073f a0f7 f9be
00000170: 5371 8dbe ce07 14bf 21fb f6be 709a 7a3e
00000180: 786b 093e 3984 013e a7b3 353e 8c90 f63e
00000190: b475 f6be 604e 1e3d 8593 23bd 1803 b23e
000001a0: 07ba 83be a413 93bc a67a 67be 9624 c53e
000001b0: b21a 063f 1642 883e 6728 83bc 65f8 02be
000001c0: 7b3d fc3d 71f0 c7bd d291 403d 20ee f13e
000001d0: 8caa 99bb a645 adbe be26 dbbe 18a7 e13d
000001e0: 9f69 9bbe c7e1 703d af22 4b3e 2986 21bf
000001f0: fc79 973e 343e eabe 9a41 583e dea4 b3be
00000200: 56ab bb3e 5d03 15bf 8ca9 b43e bdd9 d13e
00000210: dbd0 aa3e 41cb 29be d3fb 3d3e 4eb6 213f
00000220: 0c99 9b3e 2055 0bbf 2340 81be 3ad5 283e
00000230: 5afe 9b3d 2a0a 0dbf 6bfd 6dbe c10c d33d
00000240: a8d1 a9bd ddb1 16be d6c5 3f3e ef73 d73e
00000250: 5eb6 583e 8e19 f63e ca8f 31bd 1afd 8abd
00000260: 399c adbe dbdb 203f 9d39 48be b2e3 e53e
00000270: f60b 983d a3e1 89be 58db e73e 9946 45bb
00000280: 9ab8 47bc f8c3 b9be cdc6 13be d829 de3e
00000290: b74f a8be 5b03 aebe 1664 63be 842e 2e3f
000002a0: cae3 39be 0c49 90be e9b0 8ebe 2a54 3abe
000002b0: fe58 17bf 2ae0 0bbf 7aca 6cbe 6ce4 f7be
000002c0: 508b aabe cbe0 15bf 807b 4abd d8d1 933e
000002d0: f9fd e4bd 42a8 3e3e d435 0c3f b5ef d63e
000002e0: 56cd 823e eb7f 823d 9fdb d5bd d880 b2be
000002f0: fb13 053f ae2d 343f 5840 023f a093 8b3d
00000300: 6c46 c63e d211 4cbe 5b76 32be d729 55be
00000310: 4349 10be 9853 d1be 75cb 87be 3a21 983e
00000320: b5d8 7ebe 2d32 1d3e 9953 4dbe 11bc d83e
00000330: d922 a4bd 9baf acbe ec75 12be e14f f43d
00000340: bddd 57bd aff4 5dbc 58ed 39be 09fe 96bd
00000350: 3ba7 983e 9325 2c3e 1ff1 a5be 6759 8f3e
00000360: decb 843c 2116 3a3e 9a6d f1be 3c77 023d
00000370: c6e3 1d3e c6e7 f6be 2ea9 a6be 0757 043f
00000380: ac3c c8be 18f5 0f3e aa7a 603e 8315 fd3e
00000390: c713 95bd 120f 1d3f d1f1 29be 07f7 c0be
000003a0: c8da cabe ea34 293f 2064 473e 545b 17bf
000003b0: 2a4c a1bd a2b7 223f f299 26bd a9ad 09bf
000003c0: d948 40be 1d20 103e 396f 103f 5730 383e
000003d0: 3f94 ae3b 958c 583e e196 933d faa5 ddbd
000003e0: 4955 45bf 881a 9fbe 7cf5 6abe 0186 33be
000003f0: 60df 0f3e 155f 14be 45de 25bd 1feb b53e
-0.10499733 -0.3410738 -0.2926491 0.0646969 -0.109706946 0.2524578 0.4263319 -0.03276138
-0.2284428 -0.24918744 -0.28838003 -0.19312446 -0.07982314 0.26287374 0.3362865 -0.1236335
-0.46080416 0.077687725 0.5400464 -0.4064742 -0.014374378 -0.025367545 0.016771736 0.3428601
-0.10143402 0.23323266 0.32068956 -0.43426463 0.26191327 0.0841068 0.1644518 -0.060232483
0.29928666 -0.2166729 0.028473215 -0.20226605 0.04415602 0.07151935 0.1497047 -0.3485498
-0.123230025 0.56930697 -0.45516324 0.15310752 -0.36879918 -0.3403564 -0.15195097 -0.09594493
0.71277267 0.39394546 -0.039425954 0.1421443 -0.1295667 -0.2842739 0.49792656 -0.12828812
-0.44312492 0.006936426 0.3105103 -0.18479073 -0.22121938 0.22313389 -0.20743868 -0.12654264
-0.19137716 0.2787741 -0.29136464 -0.17564154 0.30219185 0.13940129 0.066718556 0.59332526
-0.44366378 -0.41151097 -0.27724713 0.5441612 0.35513487 0.3359858 -0.16707756 -0.43438697
-0.21491955 0.32682273 -0.045744922 -0.37985027 -0.2121305 -0.24699211 0.15972742 0.009553277
-0.17253111 0.22521254 0.52775013 -0.48821735 -0.27625522 -0.5782441 -0.4823847 0.24472976
0.13419902 0.12648095 0.17744313 0.48157156 -0.48136675 0.038648963 -0.039935607 0.34767985
-0.25727865 -0.017953701 -0.2260538 0.38504475 0.52384484 0.2661292 -0.016010476 -0.12790067
0.12316414 -0.097626574 0.047014065 0.47251987 -0.00468952 -0.338422 -0.42802995 0.11018199
-0.3035402 0.058809068 0.1983745 -0.6309534 0.29585254 -0.45750582 0.21118775 -0.3508672
0.36654156 -0.58208257 0.35285604 0.40986434 0.3336247 -0.16581441 0.18553095 0.631688
0.30390203 -0.54426765 -0.25244245 0.1648759 0.07616873 -0.55093634 -0.23241203 0.10305167
-0.08291942 -0.14716287 0.18727812 0.42080638 0.21163318 0.48066372 -0.04335002 -0.067865565
-0.3390825 0.6283547 -0.19553228 0.4490028 0.07424156 -0.2692996 0.45284534 -0.0030101894
-0.012190009 -0.36282325 -0.14431305 0.433913 -0.32873318 -0.33986935 -0.22206149 0.6803973
-0.18153301 -0.2818073 -0.27869347 -0.18196169 -0.59120166 -0.5463892 -0.23124114 -0.4841646
-0.33309412 -0.5854613 -0.049434185 0.28871036 -0.11181254 0.18618873 0.54769635 0.41979757
0.25547284 0.06372055 -0.1044228 -0.34863925 0.5198361 0.703822 0.5087943 0.068152666
0.38725603 -0.19928673 -0.17427962 -0.20816742 -0.14090447 -0.4088409 -0.26522413 0.2971285
-0.24887355 0.15351172 -0.20051421 0.42330983 -0.08014459 -0.33727726 -0.14302796 0.11929298
-0.0527017 -0.013547107 -0.18156946 -0.07372672 0.29815087 0.16811208 -0.32410523 0.27997896
0.016210493 0.18172504 -0.47153932 0.031851992 0.1541892 -0.48223704 -0.3255095 0.51695293
-0.3910879 0.1405834 0.21921793 0.49430475 -0.07279163 0.6135112 -0.16596152 -0.37688467
-0.39620042 0.66096365 0.19471788 -0.5912373 -0.07875855 0.6356145 -0.040674157 -0.5378061
-0.18777789 0.1407475 0.5641971 0.1798719 0.005327731 0.21147378 0.07206512 -0.10822673
-0.7708326 -0.3107493 -0.22945207 -0.17531587 0.14050055 -0.14489396 -0.040495176 0.35530946

fc1.bias f4 [20]
00000000: 7bb2 203d a5eb 94bd a0ac 90bb 1850 4e3e
00000010: af89 0b3d a982 333e b265 43bd 0284 233e
00000020: ffd7 cc3d 63e0 56bd 9e02 a53c 99f6 163e
00000030: a965 593e 9bfe a03b 120b 0dbc 2498 e4bc
00000040: 7a78 12be a59f 2d3e 5552 af3d 9b45 90bd
0.039232712 -0.07271508 -0.0044151098 0.20147741 0.034066852 0.17530312 -0.047704406 0.15968326
0.100021355 -0.052460086 0.02014285 0.14742507 0.21230187 0.004913164 -0.008608596 -0.027904578
-0.1430377 0.16955431 0.085606255 -0.07044526

bn1.weight f4 [20]
00000000: eeea 853f a18c 5a3f 6d89 ac3f a174 7f3f
00000010: 22c3 8e3f 5b8c 6f3f 8e66 a23f ce95 ac3f
00000020: 4156 7d3f 9d31 a73f c867 a53f 2bbb 8f3f
00000030: 605b 893f 7dbc 8f3f a4d7 963f 4c42 8c3f
00000040: aa3c ab3f 08bf a93f 07a1 a63f 5d70 5e3f
1.046232 0.8537083 1.3479439 0.99787337 1.11533 0.9357354 1.2687547 1.3483217
0.9895974 1.3062016 1.2922297 1.1228994 1.073101 1.1229397 1.1784558 1.0957732
1.3377888 1.3261423 1.3017892 0.868902

bn1.bias f4 [20]
00000000: ea24 a6bd 3b9b 31be 333b ab3e a310 b1bd
00000010: a5eb 44bd 4e6d 0cbe b129 8d3e c9d9 753e
00000020: 83a4 9bbd 3975 8d3d bf5d 853e 8578 873e
00000030: fe19 c23c 67f5 803c 6473 903e c517 d03b
00000040: 9692 c53d 5c8d 833e 498c 883e d06a 27be
-0.081125095 -0.17344372 0.33443603 -0.08645751 -0.04807629 -0.13713571 0.2757087 0.2400886
-0.075997375 0.06907124 0.26048085 0.26459137 0.023694035 0.015742017 0.28213036 0.00635049
0.096471 0.25693786 0.2666953 -0.1634934

bn1.running_mean f4 [20]
00000000: 9a9b f3be 2d1a 203f 646a ca3e 109b 4a3e
00000010: d06e 1ebf 71d1 313e 0165 643e a0a8 663f
00000020: 4c41 9dbf 9938 eabe 5c13 b23e d4c9 3a3e
00000030: 317a 2abf 5b96 f63e 3399 7c3f e26d 1d3e
00000040: f275 02bf c7c1 8fbd bc2c 88be 2301 db3e
-0.47579652 0.6253994 0.39534295 0.19785714 -0.61887836 0.17365052 0.22304155 0.9010105
-1.2285552 -0.45746306 0.34780395 0.18241054 -0.665927 0.48161587 0.98671263 0.15373948
-0.5096122 -0.07019382 -0.2659663 0.42774305

bn1.running_var f4 [20]
00000000: 0c8f 743d 264a 4c3d bd68 903d c13c 6e3d
00000010: f809 493d c124 623d a760 023e 2193 033e
00000020: ee79 da3d 20d4 cd3d c27e 8d3d 5e81 fe3d
00000030: 18b0 0e3e 1fd1 f63d cdd1 703d 0e0c 9a3c
00000040: 3872 693d 64ee 9d3c 4808 093d 9299 c63d
0.059706733 0.0498754 0.07051227 0.05816341 0.049081773 0.055210833 0.12732182 0.12849094
0.106677875 0.10050225 0.06908943 0.124270186 0.13934362 0.120516054 0.05879383 0.018804576
0.056993693 0.019278713 0.033455163 0.0969726

fc2.weight f4 [1, 20]
00000000: b484 4b3e a612 bb3e 7b0c f6be a76b b93e
00000010: 38bc 183f 14d3 343e df6d 18bf a799 58bf
00000020: e00c 843e 3e5a 983e bc26 27bf 370d 1abf
00000030: e45f 963e f3da 063f cb2e 10bf 3275 ab3e
00000040: 03d1 e43e 03fa 09bf d9c4 70be dd1d 3d3d
0.19874841 0.36537665 -0.48056397 0.36214945 0.596622 0.17658645 -0.5954265 -0.84609455
0.25791073 0.2975635 -0.6529348 -0.60176414 0.29370034 0.5267784 -0.563214 0.3348785
0.44690713 -0.5389711 -0.23512591 0.046171058
